agent_code/GRU_DQN/model_parameters.pt (torch, 20891 bytes, 12 tensors)

lstm1.weight_ih_l0 f8 [36, 22]
000000 7f b9 9d 83 d1 96 d3 3f 84 0a 1e 90 01 ab e6 bf
       0.30608022549758823 -0.7083747687141373
000010 40 b0 d4 6a 41 f1 b2 3f 13 44 d2 49 b0 31 83 bf
       0.07399376733946017 -0.009372117283676961
000020 48 77 2b 17 91 2a d8 bf fd c7 2c 68 ce 75 9c 3f
       -0.3775980688350171 0.02779314528306286
000030 ba 86 13 35 ea 67 e8 3f 0c 81 86 cd 3c e7 d1 3f
       0.7626849209447848 0.2797386176189469
000040 8d 90 10 9b f8 ea d7 3f f2 3e da e7 13 b4 d9 3f
       0.3737164987853781 0.40161607400749155
000050 9d 05 03 0b f5 66 e3 bf de fa d6 e1 6d c5 f7 3f
       -0.6063180174898438 1.4857004949441754
000060 db b3 ec ca 8a 91 b5 bf 3d 07 57 b2 5c 5c ac bf
       -0.08425204710211125 -0.05539216687203783
000070 53 a6 1a bf e7 8e 95 3f 47 52 ec 11 8a c5 ec 3f
       0.021052952803677204 0.899113688474764
000080 80 14 39 2a 88 f1 f1 bf b6 6a a4 d6 b3 12 a2 bf
       -1.1214677476248482 -0.03529893870491689
000090 eb 1d 8a db 53 64 9d 3f 9b eb 02 17 8e d3 7a bf
       0.02870303180182347 -0.006549410856844152
0000a0 6c 0f c3 65 81 b6 ed 3f a1 be 9d 20 b7 5e d0 3f
       0.9285284984148183 0.25578096566366965
0000b0 a0 4c d9 a1 1c 1c c7 3f 80 83 02 0d b6 3a f9 3f
       0.18054540541433983 1.5768337734409386
0000c0 ef 00 87 64 a8 ed c2 bf ff f2 ff 74 da eb c9 3f
       -0.14787773998796847 0.2025101729667753
0000d0 e4 90 7c be 75 49 cf 3f 63 35 e3 74 a8 33 ef bf
       0.24442931939223123 -0.9750559123000752
0000e0 a2 39 5e 83 13 8f d6 3f 58 00 7b 05 1a 6b bb 3f
       0.3524826796427992 0.10710299142647395
0000f0 ca 5a c9 a3 4c d3 c5 3f a4 10 59 85 05 1d c1 3f
       0.17051084515943266 0.13369816790703226
000100 a6 6f d0 4e e4 23 c3 bf 21 e4 91 fb 6f 76 d4 3f
       -0.1495328316531161 0.31972884719249534
000110 c9 02 1c e3 e6 72 e8 3f 79 f8 1f 25 a0 40 bb bf
       0.7640261111956416 -0.10645485788697497
000120 6a f3 24 74 54 29 a5 bf 32 24 fb 53 01 63 d6 3f
       -0.04133094709184244 0.34979279710074984
000130 61 34 78 ef ff 25 dc bf ee 47 5b 4a 4c 77 db 3f
       -0.43981932054231804 0.4291563726557105
000140 29 58 d9 58 23 47 8b 3f 5c 2f 8d 6d 5c 33 80 bf
       0.013319278859096855 -0.00791046342205675
000150 61 74 e9 34 fe 87 c1 3f e9 66 0d cc a1 cb c5 bf
       0.1369626768454593 -0.17027685607427337
000160 c1 91 56 e8 e5 81 9b bf 43 b1 7d 3b e2 45 b8 bf
       -0.02686270933703994 -0.09481634094635631
000170 ef 0f d9 3f 79 dc ac 3f e7 f4 c3 90 0b 34 b2 bf
       0.056369580310757665 -0.07110664638817675
000180 84 59 ce 14 00 a4 97 3f b2 4a 71 ee ab df e6 bf
       0.0230865490626342 -0.7148036629754044
000190 a6 1c f9 8c 5b 44 b7 3f 90 89 7e 02 3f 9c e3 3f
       0.09088680450178063 0.6128230141369375
0001a0 9a 28 4e df c8 c9 9f 3f 32 94 3d ee 5e bc 99 3f
       0.031043184880708986 0.025132640162514437
0001b0 bb ee 6d 20 9a 73 c3 bf 61 e3 69 f0 65 c2 a7 bf
       -0.15196539481609314 -0.046405015561453274
0001c0 cf 1a 82 47 a5 d4 d8 3f c2 d4 73 17 89 7f de 3f
       0.3879788587877728 0.47653415003089716
0001d0 7e 32 02 0e 67 fa ca 3f 49 26 f9 b2 e1 4a 9f bf
       0.2107666796113285 -0.030559088276538558
0001e0 49 f6 e4 77 ba 21 d7 3f 36 f4 b1 58 3d 91 d4 3f
       0.36143361767230836 0.32136472379335446
0001f0 2d 13 ff 87 24 60 c4 bf 71 14 5c ee b1 50 b0 bf
       -0.15918404236267616 -0.06373130864456457
000200 2e ab f8 66 f1 bf 8b 3f 1d ea d9 5b 82 9c a6 3f
       0.013549695925652108 0.04416282054167573
000210 01 e2 eb 17 0d 86 b9 bf 2c e2 05 f4 03 39 bf 3f
       -0.09970170816439607 0.12196373660652488
000220 d6 21 06 37 80 a9 b3 3f ee 9b 19 85 ee d1 c5 3f
       0.07680512755735633 0.17046910761857198
000230 92 ce 6f 33 3d 37 d8 3f 04 a1 a4 3b ab ad e9 3f
       0.3783715250312777 0.8024498143104499
000240 42 60 f1 3b 19 b5 b3 bf dd f4 b6 2a 75 4c c4 3f
       -0.07698209489297006 0.15858330331494744
000250 fb 3b 7d 0d 99 de 7a 3f 1f a4 f8 65 4a 73 d9 bf
       0.006559942113951496 -0.3976617809117346
000260 81 74 8a 54 51 e4 ee 3f 8f db 5b 24 a3 eb db 3f
       0.9653708125294004 0.4362571578089324
000270 dd 57 c1 73 63 ba bd 3f 08 63 1b 83 ba 1e dd 3f
       0.11612531257682641 0.4550005226461029
000280 36 2c b3 4e 87 1d f0 3f 82 15 15 7a 86 ce e1 bf
       1.007209117337664 -0.5564606079503138
000290 97 dc 3a 77 80 12 d0 3f e3 08 64 9d 4e d2 e2 3f
       0.2511292614321489 0.5881722520864766
0002a0 fb f9 c7 d4 cc ad 74 3f 10 27 8a 27 d8 47 92 3f
       0.005048561212332543 0.017852189458188283
0002b0 61 60 80 05 ab fc e5 3f d0 88 28 05 3b 47 b1 bf
       0.6870932681513403 -0.06749314189849831
0002c0 73 94 01 35 9b 52 d3 bf 01 05 39 34 0e db c3 bf
       -0.30191688705810477 -0.1551225428575336
0002d0 a8 53 59 a2 c2 13 d8 bf 6e 04 16 8b bf 56 de bf
       -0.37620607237232173 -0.47404469092004475
0002e0 7f 76 c3 ef 45 a3 f2 3f e9 77 94 f9 3a 2d d7 bf
       1.1648616185915726 -0.36213564274828386
0002f0 9d 43 40 92 a1 8f ee bf f6 52 0a 59 8d a3 ce bf
       -0.9550330978837455 -0.2393662152068356
000300 44 d6 fa ad b0 5b e9 bf 52 ba 98 2c 53 60 be 3f
       -0.7924426458400338 0.11865730131896982
000310 2b 8e 30 a9 2b 6b b4 bf 2e 5b 69 6c c2 fc ce bf
       -0.07976029282195245 -0.24208860677273364
000320 3e 8e d0 b1 e3 87 e8 3f 3c bb 80 07 dc fd e3 3f
       0.7665880654280455 0.6247387072124648
000330 d0 1f 5a a7 a1 63 f0 3f 3b 76 67 c1 c9 be be 3f
       1.024324086874902 0.12009869548588707
000340 e4 07 0f 20 ab 7d d0 3f d2 39 9c fd 0e 3a b5 3f
       0.25767019396528057 0.08291715327889129
000350 45 a4 70 56 3c a6 b9 bf 6d 25 ab 9d e5 10 ab 3f
       -0.10019280538894389 0.05286328839936059
000360 cd 04 a6 c1 98 10 e5 bf 86 d8 3e 44 a8 6b a8 3f
       -0.6582759649465061 0.047696359949825726
000370 28 cc 02 a5 9b 46 b7 bf 7e 82 5e 53 c9 2f d2 bf
       -0.09092114237391569 -0.2841666521217475
000380 0e e0 86 af 34 89 b5 bf 72 a3 b7 97 ab 07 da bf
       -0.08412484441112175 -0.40671815696855795
000390 ba ef 99 41 58 1f d9 3f e5 c1 f5 df c9 77 da bf
       0.39253813177469576 -0.41356131430714377
0003a0 3e d0 ee b8 bb d2 ca bf b4 2d d5 4f cc 0e db bf
       -0.209556069659472 -0.4227782039276591
0003b0 33 4f 50 1d 4a fa d0 bf 76 60 72 14 f1 69 d5 3f
       -0.265276459337872 0.33459116932636535
0003c0 5e 8f d8 03 57 ea cb 3f bd f2 8e 5c 32 89 b3 3f
       0.21808898628034518 0.07631220588423111
0003d0 9a ff 05 6b 4b ed b3 3f 44 54 fa 3f 00 c5 d1 bf
       0.07783957827450508 -0.2776489853652644
0003e0 c4 5d 6b 50 e6 6c ca bf d9 ee 7a af 02 e5 d0 3f
       -0.20644835402229778 0.2639776910470864
0003f0 22 58 88 ba e4 10 c8 3f 13 cb c2 e8 37 c8 cd 3f
       0.1880155478290258 0.23267268052367082
000400 df 86 a9 51 29 00 9a 3f 63 92 27 d0 cb 7f ad 3f
       0.025391240700975422 0.057615632209295574
000410 b7 89 ee 9a c7 3a df bf 9f 1b a7 1f 19 a7 aa bf
       -0.4879626286512137 -0.05205610762964529
000420 12 db 3d 1a 56 5c e6 3f da 85 c9 28 b4 ce cb bf
       0.6987715256244391 -0.21724559775888858
000430 79 4e 39 eb 15 aa e4 3f 16 c1 d5 dd 19 40 f4 3f
       0.6457624048438922 1.2656496682575997
000440 99 07 53 9c 17 55 f6 bf 02 e6 5a 94 1b de e2 3f
       -1.3957744699878047 0.589612760311127
000450 5d bd b7 b1 8f 13 da 3f fe a2 68 6c 0a 8f c1 3f
       0.40744392733809837 0.13717775624652256
000460 93 ef 12 17 d9 d9 de 3f 40 97 0e 61 94 0a d1 bf
       0.48204638722722243 -0.26627072790357786
000470 1a 43 aa c0 f5 db e7 3f 6b 80 54 09 e7 5e e6 bf
       0.7456005824079484 -0.6990847761371816
000480 66 a6 39 af 15 06 06 40 78 27 d8 7e 40 8e da 3f
       2.752971047350729 0.4149323691095712
000490 d0 c4 75 16 ee de ee bf a8 c5 ab 0e f2 25 94 3f
       -0.9647131384537264 0.01967600073380074
0004a0 47 e8 94 33 b9 11 f4 bf b1 80 65 b2 32 34 d0 bf
       -1.2543270125302273 -0.25318591519863803
0004b0 31 6f a2 0c 47 11 b2 3f ac e7 49 47 4c bf a8 3f
       0.07057613428554245 0.04833448763106615
0004c0 3e c7 a3 27 3f c3 e0 bf c4 0a 82 1c 89 fd eb bf
       -0.5238338255132715 -0.8746991688534185
0004d0 64 8d 01 82 4e bb d1 bf ff 4b 7e 07 31 6d e9 3f
       -0.2770572919455019 0.7945790430406986
0004e0 5a 1b fb 7e 45 7d bc bf f8 a0 31 19 b1 fb e1 bf
       -0.11128649091834344 -0.5619740955417276
0004f0 7d 73 05 6a 12 14 e6 bf 73 3a 71 1b 2c 5d e9 bf
       -0.6899501867988956 -0.7926235710127244
000500 7b 86 78 9d 5d 48 d2 bf c4 1c f1 ec 81 16 da 3f
       -0.2856668508339692 0.4076237501034934
000510 c3 4d 94 61 ce 41 e3 bf e2 42 82 fc 7e 09 b9 3f
       -0.6017829805227212 0.09780114807859833
000520 30 e7 d6 e6 c1 55 d0 bf 2f 2e 0a 65 9d b4 be bf
       -0.2552342180530216 -0.11994346348563377
000530 59 3b 01 e0 50 43 ec bf e6 f2 de 32 7d 50 cf bf
       -0.8832172751516324 -0.24464383109979976
000540 64 71 81 33 4b 27 b1 bf 0e 00 f5 4a e6 dd c3 3f
       -0.06700582511388614 0.15520933780680973
000550 68 a0 16 21 48 90 a6 bf 62 a7 e0 78 20 19 b7 3f
       -0.044069532431706915 0.09022715521919403
000560 cf 33 ce 0d 2c 58 82 3f 9e bb 60 8a 9e 93 8c bf
       0.008957237407026057 -0.01395343646808361
000570 09 1a c2 bf 60 6f c6 bf f2 a2 68 fe 57 62 d8 3f
       -0.17527398455804669 0.3810024246654812
000580 34 6b 8a ed e0 60 b6 3f 6f 2b 09 d6 9a bf db 3f
       0.08741575049718336 0.43356963064132165
000590 ed ff 49 fb 53 32 cc 3f 9a f7 dc ab 01 ca e0 3f
       0.22028589029287052 0.5246590000822267
0005a0 43 c0 33 4f 33 68 d1 3f 13 d0 4f 03 8e 34 d3 3f
       0.2719848893602867 0.3000826866475574
0005b0 b0 16 ee 56 03 17 b2 3f 8a 6b b1 a5 b9 82 f5 3f
       0.07066365120234752 1.3444153282532363
0005c0 d2 56 4b f8 f3 26 8c 3f 43 72 8e 7d 9b ba e1 3f
       0.01374617196544695 0.5540292217515986
0005d0 47 b5 6b 8f a9 9b ee bf 1d 63 ef 55 39 13 c8 3f
       -0.9565017510591723 0.18808666893053153
0005e0 e6 c7 0d 79 be aa d4 3f 0a 33 28 a6 bd f3 ca bf
       0.3229213888326953 -0.21056337941299602
0005f0 ca 21 18 47 b1 1e c4 3f 1b 9a 2b c1 ec 37 d9 bf
       0.15718666049384772 -0.39403838028229793
000600 d4 bc b2 b3 76 fb db 3f de 5d f7 b3 e6 4f d1 bf
       0.4372231249680685 -0.2705017812235989
000610 21 ae 14 e1 0f 1a 90 3f 9f 76 ea 75 8b 49 8d bf
       0.015724418747749994 -0.014300431762701847
000620 26 5b 35 61 18 2d ce 3f d6 33 ca 23 a0 8e d9 bf
       0.23575119730477317 -0.3993301724920547
000630 b3 23 0c 56 c8 71 c5 3f 71 96 28 fa 67 bd e8 bf
       0.1675348682549874 -0.7731208692463963
000640 c6 96 6b bb 3b 41 d2 bf 2e 04 d5 18 f3 6a f4 3f
       -0.2852315264011448 1.2761107416156494
000650 b2 5d 5f c1 cc fc d7 3f ce 1a 8a b2 a9 d4 a7 bf
       0.3748046768573331 -0.046544364017838555
000660 65 43 ae 00 a2 df eb 3f a8 2d a1 e2 e3 62 f3 3f
       0.871048928575061 1.2116431095808853
000670 bc e9 53 73 00 6f cf bf 2a 18 44 bf ff 6d ac 3f
       -0.24557500487555994 0.055526725862407325
000680 72 a2 f3 8a d2 79 b0 3f 55 c0 85 92 d6 4f ea 3f
       0.06435886280417849 0.822245870758716
000690 4a 7a 22 d8 da b6 ea 3f 81 97 9c ea 85 bd a5 bf
       0.8348211499576987 -0.04246157158767883
0006a0 2f bd 86 20 b9 6b e4 bf 5f 59 40 7c 44 54 dc 3f
       -0.6381497988967676 0.44264328130647884
0006b0 b6 be 23 03 eb 39 da bf 75 5d 55 ee e4 5d d9 bf
       -0.409785035196346 -0.3963558509326142
0006c0 df 5e 96 d0 26 2a aa bf 92 9c 5f cc bb c8 88 bf
       -0.0511028413413308 -0.012101618933185319
0006d0 41 fd 2b 30 22 e8 d3 3f 1f d4 dc 04 35 c3 dd 3f
       0.3110433073452051 0.46503949618210244
0006e0 b5 94 ce cd 33 06 e2 3f 2e d5 e2 61 62 cb e8 3f
       0.5632571239153977 0.7748271858060087
0006f0 3f c5 72 c3 99 fb e4 3f 34 80 a6 9e e9 c9 ec 3f
       0.6557129685735744 0.8996475313797476
000700 81 12 29 e2 0f 30 c3 3f 47 b5 36 13 64 95 bf bf
       0.14990423720350424 -0.12337327450832901
000710 26 9d d4 8e f4 4c f3 3f 4b 61 c9 8a e0 90 e1 3f
       1.2062879161183644 0.5489351950337008
000720 cd 48 cd 18 8c 3d f6 3f 2c 7d 6c f4 b3 d3 d3 3f
       1.390026184923545 0.3097963225317979
000730 a2 8f 2d a2 2f db ea 3f 9d 02 1c cb e7 93 e0 3f
       0.8392561118639501 0.5180548636418113
000740 28 22 a7 64 cc b7 ae 3f aa aa e5 57 b2 48 cd 3f
       0.059996020590521504 0.22878102580883325
000750 5a 9c b2 4b ed 7e e1 3f 87 da bc 21 92 9f d8 3f
       0.5467440107794446 0.38473943037698927
000760 f0 a4 3d 69 fc 71 ea bf 4b 05 97 85 db 16 e2 3f
       -0.8264143043026291 0.5652902230432714
000770 89 bb 1a f7 ec b3 9c 3f 1e 52 e4 6b 75 5f 55 3f
       0.02803011186795915 0.001304497403514244
000780 f8 a5 10 58 11 b3 cc bf 16 ef 15 9d 5e f3 e0 bf
       -0.22421471405077376 -0.5297082012252499
000790 a5 a4 74 33 1c 7b cb bf bf 8d 2b 31 d3 08 a2 bf
       -0.21469452393038072 -0.0352235791704305
0007a0 56 93 82 7f 14 f9 b1 bf 48 02 2b 33 66 2e c3 bf
       -0.0702069102577075 -0.14985349176824259
0007b0 54 00 d7 01 de aa e6 3f 4a 95 77 d4 e4 c6 9b bf
       0.7083578144011065 -0.027125907390560124
0007c0 69 08 e6 6b cd 45 c0 bf d7 fe 8a 13 c6 fc cb bf
       -0.12713020103916797 -0.2186515422272268
0007d0 a3 1e ee 37 4b 22 cd bf 64 3f 15 57 71 48 d7 3f
       -0.22760906439747428 0.36379655365180086
0007e0 99 bb af 8e 96 d7 c3 3f 33 6b 9d 65 b3 da b4 bf
       0.15501672713386652 -0.08146210890610632
0007f0 34 63 7e 15 4a fd b4 3f 0e bd 66 ff 2d 5d b9 bf
       0.08198988938091817 -0.09907805905708164

lstm1.weight_hh_l0 f8 [36, 12]
000000 47 43 ea 78 1c 8e ce bf 7a 26 43 14 5a 52 c9 bf
       -0.23871189025933345 -0.197825679677681
000010 00 c2 e5 73 77 e5 c7 bf 3e fb 97 83 7e d6 be bf
       -0.1866902652650566 -0.12046042168365731
000020 7f 92 b1 54 80 86 c6 bf 53 09 f2 ed ed 78 d1 bf
       -0.17597965369636268 -0.27300594555722063
000030 80 f5 1f 54 fd 1f 5d 3f aa 31 c6 6b 00 b6 bd 3f
       0.0017776464378579104 0.11605837470251026
000040 89 c6 9f de 28 a8 63 3f b0 2a b4 2d 82 7c c0 bf
       0.002399520705687778 -0.12879969817762094
000050 d7 f3 59 e0 05 a1 c2 3f 11 cf a5 07 e0 90 a9 3f
       0.14553903059632375 0.04993343442302323
000060 1b 4a 11 07 c5 35 a9 bf c9 cf f5 21 87 c9 8e bf
       -0.04923835479043622 -0.015032821391947853
000070 59 9c d9 97 07 46 c1 bf f8 51 58 ef d6 73 c5 bf
       -0.13494963564446286 -0.16759764372604002
000080 c4 cf a1 79 02 26 d0 bf e9 c4 a4 90 8f 21 d0 bf
       -0.25231992605335685 -0.25204838872293905
000090 d1 1f 18 69 f3 c6 72 bf 4a 7d 56 f9 10 c7 a3 bf
       -0.0045842655395133694 -0.03862813037562292
0000a0 66 49 32 85 9e 06 cb 3f 76 8c fe 54 df 89 bb bf
       0.21113950256092123 -0.10757251572663215
0000b0 c9 38 b9 9a f7 37 99 bf 5c 57 3e ab 7d 29 b3 bf
       -0.0246275604425186 -0.07485185080289852
0000c0 22 b4 02 2c 6d 15 d6 bf ff e4 81 2d 93 b4 89 3f
       -0.34505776689440115 0.012551450563693665
0000d0 17 89 1a f6 b1 93 de bf 2d 6d 88 77 c9 bf d2 bf
       -0.47776459725913994 -0.2929557483018524
0000e0 42 42 a8 29 c2 76 ae bf f4 31 52 60 8f ad ca bf
       -0.05949980505477416 -0.2084216327970264
0000f0 bb c3 f5 6b 99 25 dc 3f a5 cd d6 09 42 f6 af 3f
       0.43979487936945433 0.062425674153384215
000100 98 0d 56 42 1a 95 bb 3f f2 75 9a 51 19 cf b5 3f
       0.10774387473616398 0.08519132845182023
000110 a5 25 36 ed 99 0e d7 3f 5a 96 c2 6f d4 65 d8 3f
       0.36026619115053854 0.3812151996047298
000120 90 a3 6b cf 94 90 bb bf 98 20 a8 1a a4 2c dc bf
       -0.10767488540626702 -0.4402246723480032
000130 fe e8 1e 8c 00 d2 c1 bf 0e e1 e7 f8 e4 f4 d2 3f
       -0.13922125665505541 0.296197169372605
000140 c4 63 24 00 7f da d0 bf 07 96 94 d2 02 df b4 bf
       -0.2633359433544309 -0.08152787819980044
000150 18 09 c5 22 21 a2 c2 bf bb 10 6d d4 40 4a e0 3f
       -0.14557279775369447 0.5090641163774515
000160 47 ec d7 4d 40 54 c0 bf 4a 7c b9 98 d2 37 d8 3f
       -0.12757114220571195 0.378407143731185
000170 7f 3b f0 37 6d b6 fe bf ec df cb b4 bb ef b9 3f
       -1.9195377526372963 0.10131428874944931
000180 e0 d2 4e 19 57 9b ac 3f 67 4f 75 55 67 4b c4 3f
       0.05587265190061941 0.1585511367107941
000190 f3 d3 27 11 3d 2e ee 3f 02 8f 7d 7c 35 87 eb 3f
       0.9431443533964042 0.8602549964384425
0001a0 f3 a1 6d 93 73 79 f4 3f 40 68 f7 2a d9 05 f4 3f
       1.279651237384425 1.2514278105141017
0001b0 15 a6 dd 6c fd d1 d2 bf 5a 70 3e 96 bc fa d3 3f
       -0.29406676894595424 0.3121787516809086
0001c0 57 19 6e 7f 0f c8 c6 bf 3f ce 07 74 4b 74 ea 3f
       -0.17798036310359563 0.8266961351604961
0001d0 2c 74 c1 c7 1c b1 e2 bf 26 04 e7 69 06 e0 f1 bf
       -0.584120168826876 -1.117193616563108
0001e0 28 58 94 d4 2f 98 b7 3f 7f 1f 9d 97 dd 2b d7 3f
       0.09216593685081931 0.36205234342605047
0001f0 85 cc 23 ec 4a bd cf 3f 8f 72 f9 74 97 2a c6 bf
       0.2479642537142334 -0.17317479335442384
000200 2a 02 9b a4 b2 a8 95 3f 36 da 9f be bb 01 e3 3f
       0.021151343628618736 0.5939615939267415
000210 a8 65 27 6c 15 cc ca bf 78 cf f3 f3 85 28 d7 3f
       -0.2093531396956625 0.3618483431193833
000220 df 80 68 c7 92 18 a7 bf d7 97 e9 c3 3b 2d ce 3f
       -0.04510935482199029 0.23575541559256294
000230 dc fb dd 93 bc e7 a5 3f a7 cc b7 16 26 30 b9 bf
       0.0427836351873265 -0.09839094214094023
000240 61 d8 75 23 ad 48 b4 bf da 10 65 b3 4e e6 cd bf
       -0.07923395267229828 -0.23359092483054306
000250 56 2c 1e 66 13 e4 c0 bf b6 a2 dc 26 5c d0 ca bf
       -0.13196032034133748 -0.2094836416011014
000260 9a be 67 5f 69 d3 b8 bf 8c 9e 47 cd 1e c4 cf bf
       -0.09697588519315517 -0.2481726171820252
000270 24 6c d1 1a 90 01 bf 3f 4d 07 d2 a7 3c 67 b2 bf
       0.12111759810197548 -0.07188777062586134
000280 3e 51 e2 07 1d bb 9d bf 4c ed fa d2 3c f5 e1 bf
       -0.02903409348125873 -0.5611862297732073
000290 e3 f4 e7 97 77 83 ea 3f 74 f0 21 1e 95 65 e0 3f
       0.82854823750645 0.5124002064253674
0002a0 2f db 60 b5 f1 ae c4 bf 93 31 f5 5d 7b fb c1 bf
       -0.16158887249340512 -0.14048711860449412
0002b0 48 b0 93 91 ec 0e c3 bf 47 cf 7f 26 3a 32 c6 bf
       -0.14889294727561464 -0.1734078109726573
0002c0 dc bc c8 ad 57 8b c7 bf 42 20 ae b1 4b 7b d2 bf
       -0.18393989549210843 -0.28877537108974505
0002d0 8a 8c fc 05 9d 0b a8 3f 51 56 20 e2 32 42 92 3f
       0.04696360300138121 0.01783065323987493
0002e0 fc 2b 76 07 ff 61 b3 bf 2c 4e 63 5b 63 62 bd bf
       -0.07571405346077137 -0.11478253346586403
0002f0 9f 14 a1 8d d6 ed a2 3f 3a 9c 9f a5 11 97 ad bf
       0.03697081068870855 -0.057793189494809785
000300 06 ca 35 ac 4f 7e c5 bf 0d 91 a9 a0 57 13 a1 3f
       -0.16791721256920783 0.033350695001702936
000310 33 37 49 c8 6e 84 d1 bf 9e e4 db 9c 68 a9 c5 bf
       -0.273708053199573 -0.1692324415123822
000320 8c 17 5d 0f a4 68 c8 bf 87 2b bc fe 04 59 e0 bf
       -0.19069338560273896 -0.5108666396421179
000330 42 3d a3 ac 74 d2 a0 bf 25 e0 63 e0 ab 8a a4 bf
       -0.03285565001862746 -0.040120478764891034
000340 b4 1d fc d7 9a c1 be 3f 1b b0 39 6b 69 80 ab bf
       0.12014167569224449 -0.05371407922652357
000350 02 5e a4 9a 7a e8 c2 bf aa 69 c0 2e 09 b5 d8 3f
       -0.14771969366914567 0.38604955258929385
000360 34 34 83 d5 40 a0 9b 3f fc 81 34 f8 6d a6 c3 3f
       0.026978505164880498 0.15351652736082133
000370 d3 e7 fa 0c e5 87 bd bf bf d1 8c 4e a7 2a b9 bf
       -0.11535483900925607 -0.09830709140516712
000380 c6 a6 bf 9b 7d 8e cb bf fc 3c c3 53 84 7a ce bf
       -0.21528596978105535 -0.2381139191624938
000390 58 85 11 9e df 5d cf 3f e3 9e 81 bf a0 5d d2 bf
       0.2450522920435485 -0.2869645948580752
0003a0 e3 ad d5 11 16 e0 a8 3f 29 b5 98 48 64 26 d2 bf
       0.04858464210232307 -0.28359324540618275
0003b0 8d ed 8b ba 26 ab cc 3f 67 0c 42 4b a4 ed d1 3f
       0.2239731226799048 0.2801295027676986
0003c0 4c db d9 f9 95 d4 b9 3f 1f d4 5e 74 de bc b3 3f
       0.10090005254629125 0.07710066166949091
0003d0 e7 f1 84 3f 1a 66 a4 bf dc 7b 5a 13 ed ba b9 bf
       -0.03984148049719121 -0.10050851557251356
0003e0 87 43 35 57 39 cf a4 bf cf 2f bf a7 7c dc a1 3f
       -0.04064349355269941 0.03488530681315149
0003f0 a9 67 c4 d2 40 a3 b9 3f 03 c2 1b 9d db 24 b6 bf
       0.10014729638751753 -0.08649990640311249
000400 bf e0 ff 79 13 64 a5 bf ce 30 fb e8 47 20 a8 bf
       -0.04177914489986411 -0.04712128371247247
000410 df 95 d1 f5 23 1f a7 3f 4d 56 c0 6f d9 5e cc 3f
       0.04515945792881459 0.22164457279784458
000420 6a c9 dd d0 57 39 c8 3f f1 07 93 33 89 b3 ca 3f
       0.18924997042229147 0.20860400217321698
000430 44 1a 85 75 3f fc b6 3f 19 df 10 3c 70 28 bd 3f
       0.08978649729861227 0.11389829126789798
000440 6d f1 4f 2a 85 a6 c1 3f 4f d5 90 12 d1 a2 d3 3f
       0.13789429250744992 0.3068125420862388
000450 04 25 62 17 ae 3d a7 bf 67 ca 07 df 20 7d d0 3f
       -0.045392456392685104 0.25763723163905755
000460 28 f5 49 5d d6 d9 c1 bf 23 db f2 83 86 c9 8d bf
       -0.13946036868211675 -0.014544535543206621
000470 28 d0 98 36 e0 8e c8 3f 4c 08 0f 7a 1f ad d1 bf
       0.19186022439828432 -0.27619158668324384
000480 a2 25 8d ea e5 a2 d0 3f 60 20 87 5b cc d4 83 bf
       0.2599425116100865 -0.009683224242408695
000490 2d 0a e1 12 4a b4 cd bf 14 e8 19 66 1d 7c d4 bf
       -0.23206449434117485 -0.32007536860294405
0004a0 9e 7b 23 0e 3e ea d2 bf 67 6c bb e3 e6 e0 e2 bf
       -0.2955470216820063 -0.5899538467305206
0004b0 29 5a 4c 68 1d ba ab 3f 9a 51 d8 ef bc f3 b2 bf
       0.05415431879207617 -0.07403164725866987
0004c0 bb 49 8c ac e5 67 67 bf 1a 73 15 a9 7b 7a b1 3f
       -0.0028571592159860305 0.06827519300481946
0004d0 25 c8 0e c8 22 ab 9b 3f 9b 33 79 4d fc 58 cf 3f
       0.027020019016795644 0.24490312369235032
0004e0 31 f4 1a db 8e b9 9b bf 97 f0 6a 9a cb a4 f6 3f
       -0.027075035212636493 1.4152332336371154
0004f0 2c 07 f4 42 87 cc cc bf 0b f4 91 3f bd 97 c3 bf
       -0.2249917103691187 -0.1530682144547487
000500 e6 a9 b9 d5 14 9c be bf 3d 35 41 83 8c d0 da bf
       -0.11956911294843273 -0.4189788133415567
000510 eb ea 8a e3 31 63 c6 bf 55 5f 34 5e 60 55 d8 3f
       -0.17490218744736494 0.3802109641996954
000520 b7 65 89 41 e5 01 c4 3f 1d 5f 4f c1 9b 87 aa 3f
       0.15630784702334008 0.05181586012593995
000530 3b 3c 8b ea 11 db 9f bf 69 04 e2 06 bd 98 de 3f
       -0.03110912317316326 0.4780724112716315
000540 ca e8 df e4 c2 18 be bf 02 a8 67 08 34 f3 93 3f
       -0.11756532752761753 0.019482434285158952
000550 04 cc 1f 2c 73 2e dd 3f e2 d7 d5 a7 da 6c d0 3f
       0.45596007641796654 0.25664392843407147
000560 34 63 c9 cd 0c 17 d5 bf d5 ec f0 e1 eb 07 c3 bf
       -0.3295318612704705 -0.14867924244194933
000570 55 ba 2e d5 bb 80 c7 3f 03 2c ae 49 9f 4f 7f 3f
       0.18361614140799767 0.007644293039343888
000580 3d c5 63 93 34 67 bb bf fc fc ab 6b b2 92 c2 bf
       -0.10704353903181114 -0.14510183579839253
000590 89 e5 84 f4 09 ab cb bf 6a 71 8d b4 ac 97 d9 3f
       -0.2161571926060726 0.3998824847419856
0005a0 14 b2 7c 26 98 f6 ba bf 97 10 23 97 7b 69 c9 3f
       -0.10532523097635532 0.19853157882437664
0005b0 13 7c cc 73 c4 11 e2 bf c6 bd 98 63 07 25 d7 bf
       -0.5646688710875217 -0.3616350624679082
0005c0 85 c8 eb dd e8 05 b8 bf 64 03 b1 31 3d 54 d8 bf
       -0.09384017389291628 -0.3801415429371018
0005d0 b5 69 cb e9 ff 6b b0 3f 0d 74 b7 cb 45 85 ab bf
       0.06414794404864817 -0.053751164548636245
0005e0 d0 83 27 0d 0d b0 c4 bf 96 b7 28 3a 39 d6 c9 bf
       -0.16162264959623807 -0.2018500837306731
0005f0 06 dd b1 fb 53 b7 d3 3f 8f 40 14 dc 81 48 d3 3f
       0.30806445674484484 0.3013004922113475
000600 88 e3 61 bb 3a 6b c4 bf 55 b6 62 d9 1e 0b 96 bf
       -0.15952238225488835 -0.021526796358264672
000610 97 51 62 61 81 f5 be bf 3c 66 ac 58 7b ab c7 bf
       -0.1209336149934813 -0.18492070989377563
000620 4a cb 63 a6 17 dd cd bf 21 05 9f da ce 32 dd bf
       -0.23330970406058277 -0.4562260756466277
000630 13 02 63 21 49 7c a6 bf dc 39 29 2e 64 a6 92 3f
       -0.043916974378138594 0.018212857549139247
000640 e1 b6 e2 f3 64 52 b8 3f 70 c2 83 2b ed 3b bf bf
       0.09500723795164447 -0.12200815498705153
000650 3c 63 32 68 cc d9 b5 3f 2d fb 72 7f b4 67 bd 3f
       0.0853545908343109 0.11486366378356357
000660 0d 67 9a b6 2d f8 cb bf 19 ad e9 b1 d3 7c da bf
       -0.21851130882424066 -0.41386883138939506
000670 ea b6 32 ab ef 4b b7 bf 00 51 6f 17 18 d7 b7 3f
       -0.09100244454995346 0.0931258256162586
000680 5f 4f 40 91 08 1c b5 bf 3a 67 81 56 b3 68 8e bf
       -0.08245900674984118 -0.014848137929380213
000690 dd a0 42 3b b3 ae de 3f 32 69 3a 23 22 57 a7 bf
       0.4794128493035837 -0.045586649704278406
0006a0 d5 21 26 8d d9 27 cc 3f 3f 86 14 0b 45 65 a8 bf
       0.21996611969031102 -0.04764762649780296
0006b0 3b a7 8e 6d 6c 43 a0 3f 48 e5 14 49 08 7b c9 3f
       0.031764400838552885 0.1990671498149743
0006c0 ee 7b c2 cd a8 12 c8 bf 34 37 00 df 6e a0 bc 3f
       -0.18806943938122295 0.11182301468235495
0006d0 b1 77 61 ea 44 fe c8 bf 7a 12 e8 24 b4 ab c8 bf
       -0.1952596802174731 -0.1927399807174373
0006e0 1c d7 81 d1 bc 51 a8 bf ba 19 52 50 ee 13 e3 bf
       -0.04749860818348692 -0.596182972790124
0006f0 fa ef f1 c0 b4 2d f7 3f 16 b2 7a 7c 8a 91 c6 bf
       1.448658708278343 -0.17631655767526472
000700 5b 64 15 5d 0b dc c6 3f b9 63 f3 61 f5 26 c5 bf
       0.17859022183509662 -0.1652514198565578
000710 7d 27 00 a2 11 0c be bf eb 55 86 54 7b 5c de 3f
       -0.11737165646641574 0.4743946385800359
000720 23 d4 90 ca 7a ad c2 bf 87 1d dc 3d 0e f1 da 3f
       -0.14591917887597203 0.4209628681278094
000730 ca 96 e5 01 a0 35 ba bf 46 53 7b f4 2d a9 cd bf
       -0.1023807530051172 -0.23172544896683628
000740 64 58 b7 d6 cd c2 bb bf 45 09 4c dd 82 25 b8 bf
       -0.10844122402281325 -0.09432237532386008
000750 56 63 c5 6f a5 fb c4 bf 7f 79 70 62 f6 77 f4 3f
       -0.1639296336896005 1.279287704972006
000760 b9 73 9e 30 37 6d bf bf a7 2a 05 51 f3 6b bb 3f
       -0.12276024758325733 0.10711594322234906
000770 64 76 e2 ac e1 96 c0 bf 77 89 b4 60 13 c6 d9 3f
       -0.12960453931457316 0.40271458095425977
000780 22 1c 58 59 cb a5 b5 3f 09 99 0b de 8f 01 bc bf
       0.08456107074026467 -0.1093988339522164
000790 84 e9 ce 8a 0c 79 e7 bf 94 19 4e a7 29 1a cf bf
       -0.7335264884089132 -0.24298592251961948
0007a0 be 3c 01 1e 78 47 d5 bf 86 d7 1f 85 28 52 da bf
       -0.3324871342674206 -0.4112645435374066
0007b0 fc 33 fd 61 56 32 72 3f 6d cb f0 0a 8f 16 b5 bf
       0.004442536766714685 -0.08237546937088576
0007c0 9e 56 7a af a2 64 e5 bf f7 a0 0e fd cf 63 9e bf
       -0.6685346057226587 -0.02967762929952841
0007d0 2b 71 af cb e1 fe d8 3f 98 89 9a 7c dc 25 ec 3f
       0.390556763564535 0.8796217378297113
0007e0 71 d8 86 09 22 a0 d2 bf d1 79 91 20 1e 27 bb 3f
       -0.2910237401041576 0.10606563849567087
0007f0 64 90 a4 82 18 5d e3 bf 29 6e cc 6f 5c 83 d9 bf
       -0.6051142264955272 -0.3986426440985463

lstm1.bias_ih_l0 f8 [36]
000000 3c ee af dd 71 05 e5 3f 0c 87 da 35 c7 b2 e2 3f
       0.6569146470860185 0.5843235065296724
000010 4a c9 7c e1 d9 68 d1 3f 0a 32 3b fc ea 6c b9 bf
       0.2720246030832142 -0.0993182054327876
000020 40 6c d8 a8 de 5d f6 3f 25 53 56 e1 3d db e3 3f
       1.3979174228213793 0.6205129052274044
000030 93 4d be 3e f8 fc d9 bf dc 75 c8 bd 29 bf e4 3f
       -0.4060650456169352 0.6483353335094608
000040 48 bf d3 f8 ea 2f 9f 3f 77 09 8b d3 20 39 a4 bf
       0.03045622962684938 -0.039498353789457256
000050 af b5 d1 9e d5 d1 e2 bf 9b 0f 24 95 59 51 e8 3f
       -0.5881145574509697 0.7599304116160853
000060 a6 3b aa 23 a0 c0 ce bf 73 21 a0 33 ee 6f d2 3f
       -0.2402534650941252 0.28808169404557943
000070 94 c4 79 c5 f1 00 e7 bf 8d 43 b5 7c 43 c9 dc bf
       -0.7188652855821993 -0.4497841565944832
000080 18 03 14 20 09 ba e7 bf 7a 09 ad 58 6f 8d e0 bf
       -0.7414594294096757 -0.5172650081588437
000090 54 d6 b5 03 1c 36 c9 3f d7 f7 ff 8b fe 3d e7 3f
       0.19696378880660126 0.7263176664707726
0000a0 43 49 e0 34 e2 0a f1 bf 82 44 6a 8c 7d 27 96 3f
       -1.0651571336243968 0.02163501901174359
0000b0 a1 11 70 f8 a8 7b f1 3f e1 57 92 5e 8e ab e2 bf
       1.0926904396629669 -0.5834419104673964
0000c0 ba a0 36 ad b6 50 e2 3f 12 64 f6 e9 fd ab e7 3f
       0.5723527319978736 0.7397450990275749
0000d0 2a eb 00 25 ab 09 87 bf f7 39 08 80 ac 73 d0 bf
       -0.011248910013923547 -0.2570601702035726
0000e0 ba 5f 4b 71 ce 97 f2 3f 3b fc ce 8f 19 f3 e8 3f
       1.1620621133388185 0.7796752747307275
0000f0 83 7a f6 f8 40 f4 e5 bf cf 79 88 06 ce c2 e9 3f
       -0.6860661375574896 0.805029881248453
000100 dc e6 f8 ca a3 da bc 3f a6 c4 9b 0f 59 cb d9 3f
       0.11271117883088827 0.4030363705088099
000110 7f 40 e1 3d 4c b5 ec bf db 40 96 80 2d f6 e8 bf
       -0.8971310814468011 -0.7800509940589352

lstm1.bias_hh_l0 f8 [36]
000000 2f da 5f fb 40 1f db 3f f2 87 da 15 3b d2 ed 3f
       0.4237825827434873 0.9319129397229047
000010 f6 1c f3 85 5e 05 b4 3f 53 35 f1 d0 35 c3 d0 3f
       0.0782069279695071 0.2619146862460486
000020 a5 6a d8 d0 8f 55 fa 3f eb 52 56 69 1a b7 e7 3f
       1.645889106561904 0.741101461159443
000030 08 4d be 7e 73 26 d8 bf f2 75 c8 4d 87 e7 e4 3f
       -0.37734687211305173 0.6532627600860776
000040 c3 75 1a 5f 03 66 cf 3f 82 06 8b 53 62 35 a5 bf
       0.24530069488257142 -0.0414229132634434
000050 9b b4 d1 86 2b f9 e7 bf b8 0f 24 25 c9 a1 e6 3f
       -0.749166262930561 0.7072492337615506
000060 c3 c6 55 9c 4f 18 c3 3f 85 0f ff 62 12 d8 ae bf
       0.14917941220806172 -0.06024224718524266
000070 d9 c4 79 45 9f 13 e6 bf 5d 9d 5a 36 28 49 e6 bf
       -0.6898952824541552 -0.6964303075409749
000080 14 03 14 80 c7 bb e5 bf c3 0a ad 38 95 67 e2 bf
       -0.6791722775961682 -0.5751443964912472
000090 f7 2c 4a 5c 94 b8 c3 bf f2 f7 ff 4b 55 d2 ec 3f
       -0.15407042032561666 0.9006754383442497
0000a0 93 4a e0 fc a4 36 f6 bf 0e 68 e5 5c 90 9d b8 bf
       -1.388340938374914 -0.09615423458072334
0000b0 89 11 70 08 6c 8e f1 3f bb b3 24 bd 3e c3 db bf
       1.0972709970093055 -0.43379181357414226
0000c0 ef 19 e7 01 24 df f9 3f 6d e1 9d 2c 70 cb 06 40
       1.6169776987386475 2.8493350492173506
0000d0 87 40 70 a3 c0 04 d1 bf 4c 91 1c 0a bf be e1 bf
       -0.2659150692061378 -0.5545344541065247
0000e0 7f 7b d0 fa 9f 7b f2 3f 98 eb 02 4a 11 5d eb 3f
       1.1551818654477015 0.8551107831511784
0000f0 df ab ca 96 3d de f4 bf 9d 25 3a 92 2a 1d 02 40
       -1.3042579546261022 2.2642413543696436
000100 4c a9 c6 bc 0f b8 f5 3f 75 bc 19 1d fc 4a eb 3f
       1.3574368833602248 0.8529034202928317
000110 e1 91 ac 0a a3 15 f7 bf 54 f1 9c 06 26 54 f5 bf
       -1.4427824418026989 -1.333044076759582

lstm1.weight_ih_l1 f8 [36, 12]
000000 5c d7 10 5e c7 84 ab bf b0 ae 4e 7e 15 21 cf 3f
       -0.053747396690978916 0.24319714228965017
000010 54 89 17 2e d9 4c d3 3f 91 1c e1 4b b2 6c d1 3f
       0.30156545163312853 0.27225930605022436
000020 4e ef 7d 84 68 31 ba 3f d4 7a 64 27 97 56 bc 3f
       0.10231641039530112 0.11069626533251703
000030 fd 45 0f 19 4f 60 d4 bf 00 02 2f 1a ae 0e da 3f
       -0.31837823340637766 0.40714600140566404
000040 ab 12 57 d6 61 7c b9 bf 16 55 d2 fe d0 56 d8 3f
       -0.09955417139924332 0.38029885182307177
000050 ea f2 2b 40 04 a7 a9 bf a9 b2 5b 2b e6 93 c7 bf
       -0.050102360566574536 -0.18420102231120453
000060 dd 72 83 3b a9 0f be 3f 91 9d 47 33 42 c5 ba 3f
       0.1174264688774644 0.10457242729136441
000070 c9 77 94 56 c8 ca e0 3f 42 4b ad 1c a4 c8 f0 3f
       0.5247537318243697 1.0489846344177782
000080 ab f6 6d 8b 27 33 bd bf 2b 9f 69 df 3c 5f b1 3f
       -0.11406180528680447 0.06785946325691998
000090 d8 d6 7c 51 61 95 8d 3f 69 06 f1 68 05 4b 9d bf
       0.014445076274209809 -0.02860649540912733
0000a0 59 ed b1 f9 53 3d e1 bf 9a d1 08 56 5c c4 e1 3f
       -0.5387363316398633 0.5552198105202024
0000b0 3b 52 73 57 fe 60 e8 bf ec b7 3b db 7a 7b d4 bf
       -0.7618400295273838 -0.32003661546229867
0000c0 89 94 f5 f2 8b 60 ba bf 4d 3f 4d 1d f9 c4 d7 3f
       -0.10303568536399345 0.3713972841405749
0000d0 dc b6 f2 82 70 af c0 bf f6 31 e0 7f 93 d9 cb 3f
       -0.13035398858976677 0.21757739776548107
0000e0 03 69 fc ab 47 fd bb bf 4a 91 8a 7e 2b b2 d1 bf
       -0.10933349560619736 -0.2764996276621515
0000f0 f0 77 a4 82 cc c7 d8 bf 94 41 12 3b 32 14 ce 3f
       -0.38719475515415436 0.23499133953420126
000100 6c 11 aa be ae a9 ef 3f ea 04 6e 1c 1c 66 d4 3f
       0.9894632076180137 0.31873228813499443
000110 a0 85 39 98 b2 6a d6 bf c4 4f ce a2 31 bd c2 3f
       -0.35026230683987514 0.14639873933322012
000120 54 86 39 5c f1 d0 d7 bf b2 ef 96 46 be a3 d9 bf
       -0.37212785726851405 -0.4006190957404626
000130 55 f0 b8 87 81 55 c7 3f c4 e0 8c 0e 50 83 bf bf
       0.18229693533965255 -0.12309742312652633
000140 be 2c 70 4c 6c 9b d6 bf bc ca 5f 3d 84 d9 bb bf
       -0.3532362696138981 -0.10878778932946437
000150 51 3e f5 6d 20 cf bf 3f 27 5b ab 5a c8 68 dd bf
       0.12425425228615807 -0.45952042440824176
000160 d3 a0 81 d8 bf 16 e5 3f 6a 6c 78 f8 ba f3 d4 bf
       0.6590270260467385 -0.3273761202305595
000170 05 61 7f 50 cc 70 b4 bf 66 cc e7 18 15 da 98 3f
       -0.07984616246483618 0.024269418377980044
000180 ef bf 7e 82 d0 26 cf bf 70 04 22 85 73 6f b0 3f
       -0.24337202426750035 0.06420061111750086
000190 42 c0 ec f2 c5 6a cd bf 3d 13 e1 09 a0 9e c0 3f
       -0.2298209606319706 0.12984085543043902
0001a0 aa ba 6a af 97 24 da bf 87 38 9d a1 fd 41 b3 bf
       -0.4084834302001733 -0.0752256888929158
0001b0 e5 f8 a9 ab 1c e3 cb bf 07 47 89 d3 7b 78 a3 bf
       -0.21786840803174026 -0.03802859265546315
0001c0 28 a2 df 46 26 ea db bf 4a 95 35 7b d8 46 be bf
       -0.43616635247465974 -0.11826851852454925
0001d0 01 fd 79 b5 70 85 c6 3f f6 bb 56 41 1d b1 c1 3f
       0.1759472738376431 0.13821759882327428
0001e0 b2 29 d1 f1 96 2c dc 3f 2f f1 cc 4d d0 9f d4 bf
       0.4402215348715358 -0.32225425336561647
0001f0 74 78 68 e9 df a2 5b bf e7 91 ef 40 be 2e dd 3f
       -0.0016867815626322698 0.4559779771937244
000200 db 65 81 20 49 73 d7 bf 9f 16 0f de 5a fd c8 bf
       -0.3664114777980935 -0.19523177950593593
000210 57 07 d0 4a 3f 80 fd bf 72 1c 86 46 ed 11 c4 bf
       -1.8438103601806313 -0.15679708426998534
000220 02 2c 97 b6 1e a3 76 3f 24 df 76 66 b0 c1 d1 3f
       0.005526657079324872 0.277446842253527
000230 60 04 36 87 fe 31 dc 3f ef 48 51 1c 5b 2d cc 3f
       0.4405514069004024 0.22013415224734653
000240 50 d4 26 95 8e 1e e7 bf 8b 05 f6 8c 7b aa d1 bf
       -0.7224800980681128 -0.2760304333279115
000250 a6 27 7f 2f 8b 8d db bf 69 14 93 de 1e 2f d5 3f
       -0.43051414144849287 0.33100101218980754
000260 f3 97 ec 63 11 02 b6 3f 3e 44 54 52 c9 4c d0 bf
       0.08596905412250049 -0.25468667068441053
000270 78 ea e0 8b 00 35 e3 bf 9f 89 bb a1 66 94 d4 3f
       -0.6002199871066543 0.3215576724452606
000280 bf 40 2c 6c ca 11 f0 3f ec dd d3 fc 5b a6 e5 3f
       1.004343435812231 0.6765575349845085
000290 4d 14 65 3b 7a 7e e4 3f b7 40 73 52 30 7e cc 3f
       0.6404391441398133 0.2226009752835176
0002a0 63 6f 36 1a 4e 96 d4 bf d5 3e 19 5a fe 03 c4 3f
       -0.3216738944990906 0.15637187384935794
0002b0 8d cc 7b 98 62 61 e1 3f 50 c6 38 0a c3 b7 d8 3f
       0.5431378343768231 0.38621593473644555
0002c0 bd 7e 6d 55 19 dd e4 3f 69 80 32 ca bd 5e dd 3f
       0.6519896191129743 0.458907554109834
0002d0 a0 1f 8f c1 64 b4 cb bf 57 d3 a4 3d 59 51 be bf
       -0.21644267512442372 -0.11842878108002473
0002e0 2b bc 59 56 ab 12 da 3f 60 d5 30 b1 3b 03 d7 bf
       0.4073894828097219 -0.3595723371866679
0002f0 34 9f 20 c4 3a 80 bf bf 10 45 05 00 8b 07 dd bf
       -0.12305037773387256 -0.45358538629541645
000300 09 91 5a 64 65 12 e6 3f bc 01 0c a3 1b 71 e2 3f
       0.6897456131014518 0.5763071236142916
000310 a5 7f fc 3f 46 fb e3 3f 22 06 c0 ec 5b d8 cc 3f
       0.6244231462223878 0.22535275516570247
000320 fa 93 8c 7c b7 1b d5 3f 91 ab ec fa 08 29 c5 3f
       0.32981669581414474 0.16531479122326379
000330 c9 00 a3 5e cd 5f c0 bf e9 cc 1c 5c be db bf bf
       -0.12792365189489477 -0.12444677113380788
000340 9b d9 ad 0d 37 4c d1 bf f3 e2 f1 14 8e e1 c2 bf
       -0.27027679763650675 -0.14750839255045597
000350 f8 14 53 a1 c9 59 d3 3f bf 1f b0 7e 4a 75 df bf
       0.30235520128583415 -0.4915338742434833
000360 5d 5b 72 c2 ee 9a 91 3f 0e bf a5 60 43 09 ce 3f
       0.01719258367355835 0.23465769023049926
000370 7b 31 a3 cf 5f a4 c7 3f dc 50 fa c6 82 27 d4 3f
       0.18470380438374065 0.31491155082154676
000380 2e c5 f2 c9 08 77 af 3f 55 ba f5 d4 0f 6d a2 bf
       0.06145503487767666 -0.035988325830534386
000390 e7 a1 37 41 c3 ac e3 bf a4 c5 f4 ab a7 b5 c1 3f
       -0.6148391984725635 0.13835616966529785
0003a0 8e 5e 2e fb cb f2 d3 bf 3c bb 66 52 81 09 d1 3f
       -0.3116941407147146 0.2662051491451398
0003b0 39 94 2f 51 3d 2c e5 bf 6d 79 42 90 29 41 86 bf
       -0.6616503320370902 -0.010866474833446127
0003c0 4c 25 cc 43 f5 fb eb bf 66 ba 39 8f 59 1d c7 3f
       -0.8745065998238402 0.18058318608696594
0003d0 27 91 6b 62 d8 09 d1 3f 1f 5c 4b 55 e8 b2 ca bf
       0.2662259064802747 -0.20858482517971397
0003e0 9f cb 04 c9 44 4d fb 3f fa f7 51 2f cf a6 cc 3f
       1.7063644268316478 0.22384061632686764
0003f0 a7 b9 d4 a9 20 73 d1 3f 91 8b 69 8d db 73 d0 bf
       0.27265183053068615 -0.2570713883380274
000400 4e 04 97 c9 2c 6a bf 3f b2 94 2d 33 60 31 b7 3f
       0.12271385118130348 0.0905971646257793
000410 a7 9d c6 9b a6 2a e4 bf 9d 76 df 29 89 d9 b9 bf
       -0.6302063982483802 -0.10097558281219184
000420 39 5a c2 1e ce 8d c9 bf 7a 7e 30 5e fe 60 c8 3f
       -0.1996400499526361 0.19046001051991707
000430 33 f2 18 dc 7c 98 a7 bf 1e 3d b5 e7 cc 89 d2 bf
       -0.046085264079441045 -0.28966066959124415
000440 0a ea da 1f 33 56 ce 3f 51 20 77 13 40 e7 b1 3f
       0.23700560622621963 0.06993484950283003
000450 bf b6 b9 49 15 23 c4 3f 29 2a 01 f5 8e d8 c8 3f
       0.15732065296054107 0.19410883868325016
000460 6d 2f d2 74 ad 8c d5 3f c5 ad f8 fd 4f 21 dc 3f
       0.33671127708725274 0.43953323175329856
000470 72 68 ec 71 28 6b ee 3f 80 8e cd fc 07 fa bd 3f
       0.9505808091228245 0.1170964233584133
000480 f3 09 0d 33 47 88 c5 bf 72 39 ad e2 bf 82 ca bf
       -0.1682213782570013 -0.20711515968509847
000490 f3 86 fc f5 4d e5 c0 bf e8 1e 47 82 fe f7 b9 3f
       -0.13199781905228 0.10144034081087805
0004a0 fa f3 dd dc da bb d5 3f b0 22 b4 10 e5 2b d0 3f
       0.339590755167421 0.2526791251298546
0004b0 04 52 53 37 04 7b bb bf 6a 76 e8 3a 27 60 a2 bf
       -0.10734583235473144 -0.03588984102337352
0004c0 b1 26 53 ae 95 93 d3 3f dd 66 b9 a0 30 e7 c5 3f
       0.3058828546896662 0.17111785743582333
0004d0 8d b6 0f 16 c7 cb 91 bf 26 f1 15 9c 22 5a c1 bf
       -0.017378912660140734 -0.1355632078301678
0004e0 a0 0e ae ad 10 4e c9 bf 23 b5 88 b6 95 2b ea 3f
       -0.1976948593183936 0.8178204121701679
0004f0 19 e3 e7 f5 f3 4c e4 bf a9 a1 b3 ff fd 67 f4 bf
       -0.6343936732147056 -1.275388716540059
000500 df e0 df bf ef 8d f1 bf 5d 26 9b 6c cf 4a e3 bf
       -1.0971524710749276 -0.6028821107112879
000510 73 9e 29 43 87 f1 e0 3f 47 5c 68 52 91 de d8 3f
       0.5294834434289001 0.388584452129582
000520 40 90 27 54 ba a2 e5 3f 16 97 35 9c d5 96 ee bf
       0.6761142390864805 -0.9559124041522604
000530 a4 16 00 9d 8b 85 e9 3f 63 a0 77 26 c6 59 e4 3f
       0.7975519243634221 0.6359587432207373
000540 4f c5 b2 ec 64 cf f0 bf cc e2 7f df 6a 0c eb bf
       -1.0506333585766077 -0.8452658047891304
000550 a3 ab 73 16 a5 0a d7 bf 32 1b 57 cc 52 b7 d1 3f
       -0.36002471153795507 0.2768141742239322
000560 1a f9 c8 9f e6 47 d4 3f 2f 06 f5 f1 d3 c5 c6 bf
       0.31688848117836843 -0.1779122287207868
000570 ce 29 fb 1b 92 20 c6 bf 90 9b c3 b0 18 63 d8 3f
       -0.17286898008599255 0.3810483671390381
000580 b9 e3 b9 de ac b9 f9 3f ca f4 5f 3e aa aa c0 bf
       1.607830877326917 -0.13020828290601677
000590 1e 7f 41 bf 81 94 f8 bf 2d 4a 8c c4 db e6 c6 3f
       -1.5362565489703637 0.1789202413279595
0005a0 ca 07 94 26 51 3e e7 bf 6c 0f 8f d6 38 4a a0 bf
       -0.7263570550423932 -0.03181626910330135
0005b0 39 c8 42 19 af 05 b4 3f 0d 98 4d fd 92 da c7 3f
       0.07821173063965227 0.18635785454097267
0005c0 4b c0 c8 f0 a2 2b de bf 31 3f a7 4f b6 88 b7 bf
       -0.47141335977631077 -0.09192981190358009
0005d0 5c b3 57 db 89 18 d3 3f b0 52 8e e8 76 58 e1 bf
       0.29837271137403376 -0.5420488874538787
0005e0 4f 64 01 da 9d f1 e6 3f 79 44 72 02 74 8c d6 bf
       0.7169942148131073 -0.35232258070852357
0005f0 af ba b5 e4 cd 9d f2 3f af 4b 9e 5b 98 c7 c4 3f
       1.1635264333705597 0.16234116052200195
000600 2b db 47 6d af b6 be bf 7f 6d 2e 57 53 25 dd bf
       -0.11997505586610362 -0.4554031707172825
000610 88 ba 68 13 2d 92 d7 bf cb de f5 b9 72 81 da 3f
       -0.36829687972468905 0.41415088806341477
000620 ae 00 2b f6 d5 d1 dd bf fb ab 3c 72 c1 d6 e6 bf
       -0.46593236007539474 -0.7137152892295257
000630 d4 9c db 0f 90 b9 d1 3f 0f ad 37 4d 5c ae a4 bf
       0.27695085095042526 -0.04039276545139547
000640 24 85 c8 61 38 e6 d1 bf 6c 33 90 da 77 48 d6 bf
       -0.27967652844570723 -0.34817310661383405
000650 5e 7b 92 f6 5c 1b d4 3f 18 42 7b 67 76 a3 e4 3f
       0.31417011336627876 0.6449539204714396
000660 a0 aa 18 76 0e 92 b4 bf fe 75 c8 43 d4 5d cd 3f
       -0.08035364516460186 0.22942593869895228
000670 a6 1e 6f 98 8b a1 f9 bf 9e 03 e3 38 d8 c5 ca 3f
       -1.6019397692161106 0.20916273858713635
000680 6c 18 41 1e 53 db ec bf 67 fb b7 2c 10 84 f1 bf
       -0.9017730322746167 -1.0947419878791267
000690 70 e7 dc 92 ff 78 f5 3f a5 44 ae 10 70 f9 92 3f
       1.3420406090576442 0.0185296545201409
0006a0 4c 21 75 5b 80 ef f1 3f 9c c7 9c 31 e1 d5 d3 bf
       1.120972020393384 -0.3099291786667153
0006b0 70 59 18 51 e4 fa d1 3f 78 9a 17 cb 8f a1 f0 3f
       0.2809382240242462 1.0394437726296513
0006c0 42 f5 e3 5d 26 ef b5 3f 4d 4e 7a e1 02 a1 e2 3f
       0.08568038742301545 0.5821546939718673
0006d0 5b 58 79 28 ff 09 d9 3f bf ba 0d 34 7f ca c3 3f
       0.3912351508382749 0.15461721460038366
0006e0 52 48 39 a4 3a a9 db bf 16 fa e6 19 47 7e d7 bf
       -0.43220392262913265 -0.36708238152996964
0006f0 ae 68 14 42 7b 26 f2 bf 91 0a da d9 be b1 e9 3f
       -1.1343948918570663 0.802947450153015
000700 f0 9f 99 fd 0a cb a2 3f 9a 7c 42 06 13 dc e3 3f
       0.0367053446360045 0.6206145403156313
000710 74 c8 06 bc 13 b2 dc 3f a9 b3 fb 9a c0 6d e0 3f
       0.44836896287882344 0.5133975054755996
000720 78 9f c8 20 1c 65 e3 bf a1 9d 02 8d 6c 71 db bf
       -0.6060925140672984 -0.428797853188792
000730 dc 94 fc 0f ba 2f da 3f 8d 62 d4 20 51 7f ea bf
       0.4091630130881876 -0.8280416146472632
000740 8e c0 42 8a 99 12 b6 3f 72 9c 31 49 23 79 b0 3f
       0.0862213099051152 0.06434841668088767
000750 75 58 54 29 8e 60 ed 3f 88 5c 03 7a 9b 26 f6 bf
       0.9180365378586105 -1.384425617803375
000760 af 0e 7b 91 7b 4c d0 3f 47 a4 a3 00 b3 df ef bf
       0.25466813284968287 -0.9960570347294685
000770 18 11 47 c2 f3 eb f5 3f 6e c9 de 34 78 c5 71 3f
       1.3701055134743623 0.004338712269531404
000780 f5 85 06 cf 5a c2 df bf f0 64 f7 2e c6 59 b1 3f
       -0.4962374707921236 0.06777609488144143
000790 b7 62 41 bd 5b a7 c7 bf 09 53 75 14 1a d1 d0 bf
       -0.18479487172114314 -0.26276256559258165
0007a0 96 63 b7 b5 27 3c b2 bf 42 f6 64 72 1c d7 d1 bf
       -0.07123039423403407 -0.27875434085203576
0007b0 5c ab 59 19 54 42 d4 bf 97 ac a6 b0 93 bf d3 bf
       -0.3165483710824242 -0.3085679268940082
0007c0 02 a5 27 3b 3d 35 e2 3f e3 54 c3 88 b0 2b cb 3f
       0.5689989238136663 0.2122708003795771
0007d0 33 74 1c 77 53 ef 8e bf fc 7b 0c 5d 55 7c c2 3f
       -0.01510491568802239 0.14441935580632037
0007e0 df d8 ae ff 28 eb e4 bf 83 8f 6a db f7 a7 f4 bf
       -0.6537060731705217 -1.2910078593203884
0007f0 02 81 b6 c5 19 1a a8 bf 5b ae 98 e3 57 2b dc bf
       -0.047074132332683774 -0.4401454661008068
