agent_code/betabomber_denseqn_classic/model_parameters.pt (torch, 5143 bytes, 6 tensors)

dense.0.weight f8 [12, 22]
-0.20952655625725417 1.4833813053655496 -0.6738685685145585 0.3757575942064761 0.5367611907618288 1.2122756969949435 1.2215299931557484 1.2129850273840541
1.07244329125293 0.27125729015364025 0.48506962936849896 0.24662475713912518 0.20573168220426524 0.4134199475363815 -0.0022112734408785166 0.03946726514918525
0.5995029693339924 0.33768368689082784 0.004446524717385334 0.013607753744650668 -0.42936077353709845 -0.05855063222893847 -0.16082988560098022 -0.34077748669578095
-0.22860997994574295 0.5667095729332491 -0.1322351568818731 0.31868211324828 -0.2973946672696135 -0.09411572256372233 0.13271751884457503 0.004414815410853536
-0.342877529090025 -0.20587196548344347 0.33989087369748244 0.07508153032850177 0.08525348406523163 -0.10243404313192127 -0.2787446661066851 -0.45982428940225717
-0.0019558034856275593 -0.004888759669843641 -0.4083022691206096 0.012286933863198459 -0.35662025704236333 -0.17929339973612207 -0.02057260896374119 0.6739620223283639
-1.3428012192410106 -1.3136729788654997 -0.7564080359297547 -0.5112271348390508 0.12626330775795 0.041689765757113376 -0.6143247621370894 -0.17608793679376766
-0.6605583918970243 -0.1826881693391415 0.29449813843305594 0.18609102466921343 0.11363268753377805 -0.21325622688673618 -0.005626178860312251 -0.007530738709549992
-0.3095151321387751 0.16491438509643658 0.329826362680193 -0.4781128131399355 1.028209087348316 -0.12651717799219372 0.6975551583801703 2.9756514443421165
-0.663626289683075 -0.6667029910247196 -0.4818025082714733 -0.33264367004528905 0.45053102284046737 -0.3029513519237011 0.09554476242100242 0.12161230079244052
0.5591248749100317 -0.04675756876373194 -0.7898464019902992 -0.008158685593950592 -0.007904911656422932 0.012911436736425926 -0.6830829424577658 0.28734106156319256
-1.816593504445477 -1.2800383658658259 0.0035375609684129687 -0.3555122086356455 -1.078011311322629 -1.2440019426441633 0.9534745586447443 1.5034590274202084
-0.7692807557247139 0.5141913598988509 0.3326099943555357 -0.0650003822896764 0.0952602304397443 -0.5058440001438294 0.28196850506464405 -0.0304079909851846
-0.5625802931587053 0.4546894627382981 0.01675075158073017 -0.02971925525376011 0.1240226379494219 -0.3545758186183013 -0.8623953021238605 0.02422056070989996
0.39892779585049876 -2.6869621343231587 0.6045262289387487 -0.02756001607120041 1.1671945719705175 0.9274573854334773 -0.9374650062660043 0.05630161673535883
-0.38057257616805074 0.1755918693524785 0.0541285578313252 0.5529059081334992 0.279311751459259 0.026595288716779915 0.09049236261837466 0.12199464254239112
-0.005876883787353211 -0.027903613234593713 -0.5308966157518042 0.10897688658927472 -0.20484122516109743 -0.7790005595827555 -0.5293793947324511 -0.3707862557878374
0.3146284527860442 -1.136093849696729 0.09075832658860385 0.16690680149876294 0.015920918341725068 -0.02497119487812167 -0.496138080755229 -0.17308172888074652
0.045183977743569394 0.7364431278841599 0.04015949155895112 -0.02757553864856478 -0.44718614771583876 -0.5587621642635924 -0.003526386851769324 -0.001322139648751467
-0.28917757120587967 0.2330306604120087 0.004884416368051394 0.2926748411403367 -0.32557599424351685 -2.812626167545502 -0.45926344044991896 -1.0903871353769599
-0.5592877995253841 0.08702976391496278 -0.2670132852013505 -0.004765712228679944 0.004546501849030963 0.03700761280586497 -0.23523736763395542 0.004961954953150081
0.17867372891819416 -0.176960047991403 -0.5534956146636595 -0.6366673597439851 -0.022818312918919954 0.014018426280821355 0.035277615494373186 0.05720238974654632
-0.4877043002137675 1.500692213283591 0.21065741767942422 -1.587611284078078 0.2971158533161508 -1.1974090385379375 0.2870921607661099 0.8654513719566754
0.9994530896869008 -0.13670644000583154 -0.4420890739451695 -0.6075424673373578 -0.34946875570307195 -1.5510260947306511 -0.016883054103288168 -0.10707123985867344
0.22278306712920862 -0.08215496476491077 -0.007788670928200722 0.004424538877491903 0.5586244419447782 -0.0730686633800029 -0.03303536964102283 0.8868932377094464
-0.15295311372949438 0.07826150437366623 0.18952639664943197 -2.3384513582054187 -1.2064477631592363 -0.19715127787540457 0.9041830541010689 0.011648804094738025
-0.47445514478801193 0.032000553366698145 0.11713232307202805 -0.015402692714708713 -0.5123901129263368 -0.12579257408530925 -0.12400787044594727 0.20874149817322973
0.011877690799507243 0.009475096849668775 0.7088297626912611 -0.4215636111918772 -1.2714618602011796 2.5917131927110684 1.5483446570708377 -1.1257847274034998
-0.7209444096388453 -1.2835604390191957 -2.058117780243099 0.5732859288554673 0.7102165998414726 0.11518857533463284 -0.6823740570813446 -0.763378624108346
0.42055299060296103 -0.3496427070492229 -0.27798662922637096 -0.08056804324691749 -0.6454597419049682 -0.2306892996370423 -0.027453764197155187 -0.013015617891015933
-0.7996050287091819 0.34327947746592824 -0.6161322624426967 0.9353040758232728 0.6331198240691284 -2.115063201217693 -1.0365612888700722 0.8567060016812214
-0.3876016553057508 -0.7460336711936413 -0.23960493681564995 0.21729911343974773 0.3981556798264954 -0.1977065664931484 -0.5279455394910171 -0.2872114972137324
00000000: 495b 6225 c4d1 cabf 69af 2009 eebb f73f
00000010: ce50 f2d0 5490 e5bf ffc9 9594 690c d83f
00000020: b8b0 02ce 252d e13f 2043 8533 7b65 f33f
00000030: 21fe ba08 638b f33f 516f f2fc 6268 f33f
00000040: 5cef eb4b ba28 f13f e3bb 8089 475c d13f
00000050: 32ea 9a7c 610b df3f 3af3 2569 6691 cf3f
00000060: d2c0 686f 6a55 ca3f e7b2 8bf0 7875 da3f
00000070: 8605 8e63 601d 62bf 6818 28aa 0d35 a43f
00000080: d49e e4d9 202f e33f 0eaf e509 9c9c d53f
00000090: 4a56 dfe3 8436 723f 1c3f 71ca 61de 8b3f
000000a0: 02bc 219c a57a dbbf 48b5 2a35 59fa adbf
000000b0: b014 70dd 1296 c4bf b592 2460 4ccf d5bf
000000c0: c4fd b381 1743 cdbf 8382 421d 7c22 e23f
000000d0: 9633 18e5 14ed c0bf 902d 8ea9 4965 d43f
000000e0: f060 7ba4 8308 d3bf 4e5a 73ce f717 b8bf
000000f0: 6798 853d e3fc c03f 827d ebfc 4415 723f
00000100: 8465 7e97 b4f1 d5bf 9d12 7537 035a cabf
00000110: d954 afa6 c5c0 d53f 7367 4b0d 8b38 b33f
00000120: 5b23 ee1d 2cd3 b53f dfa7 3f11 1e39 babf
00000130: b135 37de f3d6 d1bf 92e7 38db c26d ddbf
00000140: 63f4 4200 9e05 60bf bb53 666e 3c06 74bf
00000150: e55b 30d7 9f21 dabf 4169 e258 e429 893f
00000160: d8a2 45c5 ddd2 d6bf a6ad 200c 16f3 c6bf
00000170: f049 c56a fc10 95bf dbae 94cd 1891 e53f
00000180: 7fb4 9a21 1d7c f5bf 0adc 1df5 cd04 f5bf
00000190: 18ff 17a0 7e34 e8bf a7c4 1e02 f95b e0bf
000001a0: afa9 c064 6529 c03f 6268 0269 5c58 a53f
000001b0: 910e 5067 8ca8 e3bf 9cea dfac 0c8a c6bf
000001c0: 6979 495a 4b23 e5bf 9ebf 5670 5362 c7bf
000001d0: fe61 53b8 0ed9 d23f 7b46 84a8 d4d1 c73f
000001e0: 6dd3 b624 0817 bd3f 38cd 12e4 fa4b cbbf
000001f0: 04c6 4de3 790b 77bf ea49 8e47 8dd8 7ebf
00000200: 55cd 898e 18cf d3bf d287 5021 ea1b c53f
00000210: ed7b 4408 e01b d53f 6403 0f7c 6699 debf
00000220: c2c6 395f 8b73 f03f 53e9 ed02 b731 c0bf
00000230: 0dc4 0c32 5f52 e63f d9f4 2d58 22ce 0740
00000240: 538c 5e33 6d3c e5bf f516 d382 a155 e5bf
00000250: 2608 0a30 dad5 debf 3838 04ad 084a d5bf
00000260: 25ba 3b12 80d5 dc3f 61a4 3211 8e63 d3bf
00000270: d1fc e61d 9f75 b83f 7de1 b1d6 fb21 bf3f
00000280: 34cc 83d9 59e4 e13f b084 5ca9 9bf0 a7bf
00000290: dd2b 2df6 6b46 e9bf 7656 6f3e 80b5 80bf
000002a0: 813b 5648 7330 80bf c4f4 37b4 4f71 8a3f
000002b0: 40f8 49c2 d0db e5bf b38e 8dc3 cb63 d23f
000002c0: 7a82 bb59 c410 fdbf d84d 7082 097b f4bf
000002d0: 1d92 5795 cdfa 6c3f 0cce 5a47 b6c0 d6bf
000002e0: 8c94 edc9 883f f1bf 0b13 bd94 6ee7 f3bf
000002f0: 8d4f de13 dd82 ee3f 0b55 9a0d 2b0e f83f
00000300: 36f4 e8ac f29d e8bf b3d7 5470 4174 e03f
00000310: f51a 056e 7b49 d53f 6762 2974 dda3 b0bf
00000320: c01e 5976 f962 b83f aedb afc1 df2f e0bf
00000330: 4b4c f0a0 c50b d23f b112 46bb 4523 9fbf
00000340: 13b4 0f63 a800 e2bf c9fe 12d5 a119 dd3f
00000350: 0900 e4e8 1b27 913f ac68 8175 b96e 9ebf
00000360: a6d7 f495 f2bf bf3f 09c1 3ac6 5eb1 d6bf
00000370: 9912 5b08 be98 ebbf 7c28 8f50 46cd 983f
00000380: 1e2b 2973 0888 d93f 0d11 e400 e67e 05c0
00000390: 60b7 db63 4758 e33f c3e9 cf5e b138 9cbf
000003a0: d8e9 2a37 d4ac f23f beda 5b1c bbad ed3f
000003b0: 51d2 e19c b6ff edbf d03a 2ec5 90d3 ac3f
000003c0: 1c5c 1914 4d5b d8bf b8fc 275c cb79 c63f
000003d0: 5093 5403 bdb6 ab3f 995a 26bb 67b1 e13f
000003e0: defb 7965 3ee0 d13f 32a3 109d cb3b 9b3f
000003f0: 3fd3 fbe9 812a b73f 58bc 0178 0a3b bf3f
00000400: a187 b4fa 5b12 78bf ac99 21c9 c392 9cbf
00000410: 26c1 46e6 1afd e0bf e7bb ebc3 e8e5 bb3f
00000420: 1241 78bd 3c38 cabf 0328 df94 92ed e8bf
00000430: 3bab 710e adf0 e0bf 3890 9a46 f6ba d7bf
00000440: 61db c660 df22 d43f a525 9abe 702d f2bf
00000450: 61a9 890c f03b b73f 3165 f5ba 335d c53f
00000460: 4765 66be 924d 903f 33d2 5f85 0c92 99bf
00000470: ea35 c9ef b9c0 dfbf 1afa 89c6 8a27 c6bf
00000480: fd73 6cb5 5a22 a73f 920b b42d f190 e73f
00000490: 1b47 bded c88f a43f 4322 a912 c33c 9cbf
000004a0: ec7a eaa5 b29e dcbf 4d23 b830 61e1 e1bf
000004b0: 17d1 7186 5ee3 6cbf 7623 56a3 74a9 55bf
000004c0: c338 c4a4 e281 d2bf 78a9 b7dc f2d3 cd3f
000004d0: 9c26 f988 ae01 743f ced2 c341 2fbb d23f
000004e0: a5de e8b1 3cd6 d4bf 9fda eb25 4280 06c0
000004f0: 2cc6 3e7c 9264 ddbf 4bc5 e6c7 3972 f1bf
00000500: 316d 0087 afe5 e1bf 0a1a cb25 9547 b63f
00000510: 7863 e2e3 be16 d1bf 0316 a122 3685 73bf
00000520: 1e6f 0b4c 5a9f 723f a28f 686d a9f2 a23f
00000530: d079 6410 421c cebf e4d3 f7a3 fc52 743f
00000540: 62d3 2ddf c7de c63f 5d2c 6979 a0a6 c6bf
00000550: f9b6 6e6f 3cb6 e1bf a2fe 103a 945f e4bf
00000560: d255 f20e af5d 97bf e911 5753 b1b5 8c3f
00000570: 578c a859 e80f a23f fccd 6db2 a149 ad3f
00000580: 3f59 e218 8c36 dfbf 59a3 96d6 d502 f83f
00000590: 6fe5 cb7f d2f6 ca3f bb03 fe16 db66 f9bf
000005a0: 8f6c 4736 f203 d33f af48 4761 9628 f3bf
000005b0: 2c6b 5bcc b75f d23f d0a1 5a13 c7b1 eb3f
000005c0: b3ec c20b 85fb ef3f 1023 7dbc 987f c1bf
000005d0: 04dc a0f8 2f4b dcbf a9a4 84e6 fc70 e3bf
000005e0: 07fc 2d33 b25d d6bf 9cc5 01bd 00d1 f8bf
000005f0: 21bf eb94 ca49 91bf 2b01 8951 0569 bbbf
00000600: 4115 b6d1 2784 cc3f 068c de96 1b08 b5bf
00000610: 30a4 a76e 03e7 7fbf cf96 751c 771f 723f
00000620: 35c5 9c5d 40e0 e13f 145d 94bf a0b4 b2bf
00000630: a05d 7010 03ea a0bf 172e 60ed 6d61 ec3f
00000640: e00f a5b6 f793 c3bf 9b16 d229 f208 b43f
00000650: b544 aba5 6642 c83f 813b 56fc 25b5 02c0
00000660: d19e 712b 9c4d f3bf c973 6bc9 403c c9bf
00000670: 86c4 de4c 11ef ec3f 0acb fe04 54db 873f
00000680: 2524 921c 795d debf eee6 5364 6062 a03f
00000690: 211c e648 62fc bd3f 3510 d76b 728b 8fbf
000006a0: e2fe 39f3 7f65 e0bf f255 e397 f819 c0bf
000006b0: 0e0f 03d4 fabe bfbf a46c fc99 0ab8 ca3f
000006c0: 657d 49ac 5453 883f d41d c4f8 ad67 833f
000006d0: d117 26c1 bbae e63f 6b2d d0f0 e5fa dabf
000006e0: 66ce 3a64 e857 f4bf 3f72 5a20 d4bb 0440
000006f0: abe3 100c 05c6 f83f 858c a8d8 3603 f2bf
00000700: 7440 b402 fa11 e7bf f86d c0ab 7689 f4bf
00000710: 8bae 6b74 0677 00c0 6e1e 76bb 5b58 e23f
00000720: 79a7 ac29 18ba e63f 6c61 ef9b ff7c bd3f
00000730: eab3 591e 02d6 e5bf aa58 2002 996d e8bf
00000740: 4cfb 3717 57ea da3f afec 03ce 8b60 d6bf
00000750: a229 506e 88ca d1bf 3a25 d976 1ba0 b4bf
00000760: dfb9 4b30 9ba7 e4bf 0337 bd1a 3a87 cdbf
00000770: 64f8 83ed d61c 9cbf 0fe4 6ea9 eea7 8abf
00000780: 0dbd 0049 5d96 e9bf 14aa 467c 4af8 d53f
00000790: bb75 a601 5bb7 e3bf 2b3f 2fd0 02ee ed3f
000007a0: 1170 5a81 8442 e43f dd9f 7141 a6eb 00c0
000007b0: f2f1 3f4a c195 f0bf a03f 70b4 226a eb3f
000007c0: 7b79 5a2c 77ce d8bf 6cba 6f01 82df e7bf
000007d0: a3ab cae3 5fab cebf 9835 d614 75d0 cb3f
000007e0: 8d92 e4f5 617b d93f 5b71 a5e2 724e c9bf
000007f0: 18db 450b eee4 e0bf fe5c e454 ac61 d2bf

dense.0.bias f8 [12]
1.2928615622311428 1.8180890898506197 0.06358033586475977 1.4635733544265013 1.055538486532663 -0.8496043549401301 -1.876950172417206 0.22029084414451633
0.7572426706681052 0.7756880375337456 0.13617827582950368 -0.8427384930292301
00000000: 949c 009b 8faf f43f 0ff7 e195 e416 fd3f
00000010: f134 3507 cd46 b03f 02f1 c8e4 cb6a f73f
00000020: e63b f552 7ce3 f03f a139 e078 f52f ebbf
00000030: 2d0e 6ce7 fc07 febf 3ebe 9a89 7d32 cc3f
00000040: 7cf7 34fb 543b e83f 3063 23b8 6fd2 e83f
00000050: 6b83 8e2c 4a6e c13f fc81 54b7 b6f7 eabf

dense.2.weight f8 [6, 12]
0.5241082443899098 0.2060471270945543 0.3566705856916493 -0.36764940213746755 -0.5046576751520504 0.18611981264629804 0.7550322241700832 -0.4322812180355661
-4.320171098025497 -1.5994671107516112 0.7500417123771278 -0.5642945874604358 0.5592855693800028 -0.8448528644917188 -3.1603957462530117 1.0070716571512874
-0.8023281828015829 0.512538880446807 -0.05980106596756461 0.4541213232985399 -0.8268452938120806 0.8092569876831237 0.622902461544516 -1.8240777874754937
1.2416989595738368 -0.34430562016680355 -0.09889797289329573 0.6289624281708656 -0.29148278297330876 0.5824975176017279 -0.157378406736475 0.867550971607117
-0.843427540126027 1.5603283262608347 2.410944290727144 -2.663798789995281 0.8701451338717078 -0.1090735706814055 1.0084189793622202 1.4720708060515535
-1.5237042981505684 0.9208476557512761 -0.8945499280584356 1.4130069085666488 -2.148348570365008 1.047303537122194 0.3381103904903348 -2.2480579062190915
0.14489780252528398 0.44956812368120314 0.4790697489401658 0.3841639010457387 -0.25206016695961964 0.664224466015916 -0.4159092522992116 0.07880251463963521
-0.1568861188272824 0.7257711608501092 -0.28678495750094984 -0.14002334106163608 0.3572982215472937 1.137954213174558 -0.27791052817328993 -0.17319945722095353
0.007658905411791848 0.1589179826434492 -2.76340704449918 0.5847878147903981 0.6295978251699968 0.5883606203288937 1.6626825855391458 -1.5539547225069932
00000000: 15ff 26a7 7ec5 e03f a026 2794 c05f ca3f
00000010: 4169 3fdd b0d3 d63f 92c2 a45b 9187 d7bf
00000020: a682 4eda 2726 e0bf 330c 3a26 c6d2 c73f
00000030: 9f92 c756 3929 e83f bed1 88d7 7eaa dbbf
00000040: 6093 acee da47 11c0 e04a 3bd3 6a97 f9bf
00000050: 9375 297a 5700 e83f ed79 ce85 b30e e2bf
00000060: 4994 b3d9 aae5 e13f 3290 dddf 0809 ebbf
00000070: f697 a490 7d48 09c0 c617 832b f71c f03f
00000080: 5057 3927 acac e9bf d651 2ef0 b766 e03f
00000090: 4e79 31cd 3e9e aebf 33f1 fee1 5210 dd3f
000000a0: ddc7 f842 8475 eabf 5c12 05e9 6ee5 e93f
000000b0: 9ecf 9d24 d1ee e33f 9813 a930 6c2f fdbf
000000c0: b88c 6dba ffdd f33f c081 9c70 1a09 d6bf
000000d0: 81a7 37a7 6051 b9bf 0103 6dd0 7520 e43f
000000e0: 52ea 0d67 a7a7 d2bf 2938 83d5 d1a3 e23f
000000f0: b9ce 03c3 f924 c4bf 884c 5541 fac2 eb3f
00000100: 6b62 acc0 5bfd eabf d500 c5d5 1af7 f83f
00000110: 3f35 0929 9d49 0340 9b3b 71bd 754f 05c0
00000120: b314 989b 3ad8 eb3f b440 efda 3eec bbbf
00000130: 476c 90f0 7b22 f03f 5a34 161e 9a8d f73f
00000140: 1b4d 15c2 1761 f8bf 9499 c180 9577 ed3f
00000150: e5cd b42b 27a0 ecbf 980d d521 ad9b f63f
00000160: 2e02 1160 d12f 01c0 93cc 8e5a c1c1 f03f
00000170: 7300 66c3 99a3 d53f 47cd 95c8 05fc 01c0
00000180: c5de 8ddd 028c c23f fe3a 2261 b9c5 dc3f
00000190: 3fdc 0c2a 14a9 de3f 04e5 d22f 2496 d83f
000001a0: c0d0 6df7 c021 d0bf bcb9 d7aa 5341 e53f
000001b0: bca6 2ed7 419e dabf 7344 38cf 662c b43f
000001c0: 439f c726 d814 c4bf c865 0771 8439 e73f
000001d0: 95e2 5c4b af5a d2bf 21a8 44eb 48ec c1bf
000001e0: d3bb 1d5c f9dd d63f d9e1 1e7a 0f35 f23f
000001f0: b9f9 6d3d 49c9 d1bf 1477 395a 662b c6bf
00000200: a4d3 44c4 f15e 7f3f a696 19a9 6c57 c43f
00000210: ab47 0d27 751b 06c0 57f8 73ef 94b6 e23f
00000220: 919c 9756 aa25 e43f cf23 d2a6 d9d3 e23f
00000230: 464f 080e 599a fa3f dd1d 8aa0 ffdc f8bf

dense.2.bias f8 [6]
-0.1944263814277536 -3.524721433021848 -0.5516682783036306 0.5236844281148814 1.7117626739183753 1.087097587095941
00000000: 081d dbb2 f6e2 c8bf 76b6 9226 a132 0cc0
00000010: 44c0 b13b 44a7 e1bf 2eb1 85d8 05c2 e03f
00000020: 0fe3 ef41 6163 fb3f 8533 8270 c064 f13f

dense.4.weight f8 [6, 6]
-1.0883274119941018 3.2047207354208234 -0.4767509910329668 -1.5824697757839825 0.625103669632906 -0.10206897907362404 -0.27007769662983344 1.9593936039247442
-0.33783112562193546 -1.5493546584265672 0.5340172842495667 -0.1869775183712912 2.8331327718186117 -5.14482391046578 -0.606787679615215 -1.455980212436193
0.46376073912914906 0.0821038925070905 1.0598102311767719 -5.204998447233524 -0.8166942028641977 -1.7336105870795722 1.8569062656146098 0.324822547249345
0.41995305070419975 2.7035098938584103 -0.47762011024303075 -1.56229699764795 0.5397193434768849 -0.0389360905679285 0.7297147242165989 4.4745406855526255
-2.705123906654886 -0.07722035378655322 -2.3087874409511895 2.7232635324040557
00000000: 05ae 1d01 ca69 f1bf 6590 fb9f 44a3 0940
00000010: a09e b496 1683 debf 1869 ded3 cb51 f9bf
00000020: 7ada 3569 d900 e43f c3ac 0e4f 3121 babf
00000030: 7fdd 99f6 f348 d1bf db92 8d1b ad59 ff3f
00000040: 3f7e 0771 069f d5bf c68e 3d1c 28ca f8bf
00000050: 5238 6b6a ab16 e13f b9f7 3e1b e1ee c7bf
00000060: 807e c183 41aa 0640 7684 1cb8 4c94 14c0
00000070: b404 f2fe cd6a e3bf d695 40e8 b14b f7bf
00000080: 769f ee85 41ae dd3f 8137 31bd c204 b53f
00000090: 4ded ad92 fbf4 f03f 2365 ea1c ebd1 14c0
000000a0: fa4d 84e1 5b22 eabf 1419 7874 debc fbbf
000000b0: f8d5 2858 e3b5 fd3f 561e 5c82 e4c9 d43f
000000c0: 6451 a8c2 82e0 da3f 4146 94cb c9a0 0540
000000d0: 82f7 59f0 5391 debf 4897 f822 2bff f8bf
000000e0: d70e 2880 6145 e13f 5627 3f67 6eef a3bf
000000f0: 3e70 7db1 d259 e73f a047 54fe ede5 1140
00000100: 16af b500 18a4 05c0 af4a 198e b6c4 b3bf
00000110: 3968 c28c 6578 02c0 d384 1064 3ec9 0540

dense.4.bias f8 [6]
8.782526108558757 8.55172910497829 8.374462087845123 2.687325463800307 8.785680876832746 6.960074032939955
00000000: 510d 1943 a790 2140 2744 bc3c 7c1a 2140
00000010: fbc5 a97e b9bf 2040 c2d7 257e a47f 0540
00000020: b22d 8ec3 4492 2140 1edd b4a5 1dd7 1b40
