agent_code/betabomber_deepqn_classic/model_parameters.pt (torch, 26843 bytes, 12 tensors)

lstm1.weight_ih_l0 f8 [48, 22]
0	0xbfe0fc234fea33d3	-0.5307785569035509
1	0xbff1dfedd1ee5ad4	-1.1171701622421795
2	0x3fbbfd23cdaa17b4	0.1093313576803599
3	0x3ff1557a9039c14c	1.0833688386738514
4	0xbfd0e8f3ecd47e57	-0.2642183125298962
5	0x3fe0a48ce5ffba59	0.5200867168585531
6	0xbfe1290ce142e67d	-0.5362610244403211
7	0xbfbb8216cf5653ad	-0.10745375215476712
8	0xbfe02127532da00b	-0.5040470718931841
9	0x3fdf3a8836b39db9	0.4879475149341164
10	0x3ffa15e3ff1e1aa1	1.6303443875819215
11	0x3fc8848d9f37c445	0.19154520296391034
12	0x3ff1a8e85915f043	1.1037372093114903
13	0x3ff3331f57d2a984	1.1999810629446026
14	0x3fd1d53f90c1c37a	0.27864064346709194
15	0x3fcfb8e72195bec7	0.2478302873600937
16	0x3fdc9d340f25b7b5	0.44709493140441775
17	0x3fc1a490a82c8836	0.13783462726229495
18	0x3fc5a5dbfb84ce52	0.16912412434759233
19	0x3fadbd5afc1dbc2e	0.05808529212560419
20	0xbfd48ac1edb30b63	-0.3209690877230768
21	0x3fd9d93461058fac	0.4038821170308846
22	0x3fd9bb71a059a324	0.4020656648558989
23	0xc00a71e622c9d670	-3.305614730629536
24	0x3fcdfe4063ae6ddb	0.23432164065603342
25	0x3fe4f52e94d1049f	0.6549294382640659
26	0xbfd1694a92ee0553	-0.272051471220114
27	0x3ff1a2344f19842b	1.1021006669836975
28	0x3fcd165518186b0d	0.2272440307286491
29	0xbfecfb4655ecaa4d	-0.9056731870853781
30	0xbfc7d4fbea94e829	-0.1861872573297785
31	0x3fd7e950e4af92b3	0.37361547787285615
32	0xbfbd1345ea115ca2	-0.11357533421083812
33	0x3fca234a7909254f	0.20420199308345352
34	0x3ff98a7d950567f6	1.5963111706864743
35	0xbfc653a673839d83	-0.17442780151689527
36	0x3fd8246b51f19980	0.37722285272902667
37	0x3fef85c511987cbb	0.9850793212571242
38	0x3feef871a6ac7aa5	0.9678276305529222
39	0xbfcc8abdee7a51e3	-0.22298406738686002
40	0xbf9072e5627e788b	-0.016063293587301557
41	0x3f96e1efb0432a1d	0.022346253522110716
42	0x3fe24b39bebf2b38	0.5716828084490322
43	0x3fe5722aad0b2847	0.6701863651044356
44	0x3fcde10a84217b55	0.2334302086992134
45	0x3ff11fe60e511c76	1.0702877578021606
46	0x3fd5bffd9fb03dd8	0.3398431834657152
47	0xc004f4bd640a1541	-2.619501859243116
48	0x3fb2a09c0d34dbea	0.07276320764945834
49	0xbffaa8e64542bbd2	-1.6662352281089068
50	0xbfe2b749af06297b	-0.5848740023077846
51	0x3fb1e0e27d667598	0.06983771859673593
52	0xbfe5982aeab0782d	-0.6748251518035936
53	0xbfb20220a72b9dcf	-0.07034496384914422
54	0x3ff4a8cf7d5c7f61	1.2912135025908003
55	0x3fd9a733edfa10ef	0.4008302520744697
56	0x3fd53bf7dd0aa8fd	0.33178516946885833
57	0x3fe050f6e7e75035	0.5098833588949733
58	0x3ff6a495d78c1527	1.4151819629490292
59	0xbfb5d6ffc92b9426	-0.0853118768823867
60	0xbfb2dda10d27f2c5	-0.07369429179375249
61	0x3fb87f97745dba1f	0.09569689360589749
62	0xbfb8a662f636602b	-0.0962888575653557
63	0xbf9bdd1d272cb12c	-0.027210670009638324
64	0xbfcb591d60db9948	-0.21365706662545336
65	0xbfd930925d19995f	-0.39358958331867727
66	0xbfc522f41dbaf220	-0.16512919856713015
67	0xbfe42ae6f62008c7	-0.6302370841151735
68	0xbfaa9efab4c4a4c4	-0.051994165960715516
69	0x3fe55638cfc02cd4	0.6667751367216632
70	0xbfd9263a292556e3	-0.3929582025351534
71	0x3fe3ea0c4cafb270	0.6223203180102939
72	0x3fbd56ce23719d18	0.11460579266860227
73	0x3fddec935fb9bb38	0.46756443355745914
74	0xbfcd03c19df8d2ca	-0.22667713368868753
75	0x3fc85c369b5566a0	0.19031412682197857
76	0xbfd65e784a9bb6a1	-0.34951598440134474
77	0x3fcf6cdcd2843e30	0.24550972251061998
78	0xbfd5570844757445	-0.3334370296996137
79	0xbfdb4eb8ba0ca59f	-0.42667978447806293
80	0xbfc8cf1b41d29de5	-0.19382038797378623
81	0xbfc239b65bde6cac	-0.1423862408235882
82	0xbfdd399efc8a0e57	-0.4566419092372817
83	0xbfe096d437c2cad3	-0.5184117402153227
84	0x3f867eb125a45250	0.010983833276022953
85	0x3f89d459f9d40c51	0.012612059532790239
86	0xbfd13d44a3160cac	-0.2693645088804242
87	0xbfacc1f5563fbaea	-0.05616728475421502
88	0xbfc476bbb40ed530	-0.15987345020190835
89	0x3ff7dc1c990aecc0	1.4912382105092519
90	0xbfd36bfa9ebfad8f	-0.30346551420981255
91	0xbfc361bd77820b25	-0.1514202912840911
92	0x3fe1201d78e9742a	0.5351703034936055
93	0xbfde1f942e9c2c2c	-0.4706774192024479
94	0xbfd081f65b38b914	-0.2579322710834202
95	0x3ff302ce134ecb90	1.188184810086316
96	0xbfafedd433ed2d6d	-0.06236136564128967
97	0x3fd75f6517394f5e	0.36519744174915114
98	0xbfe05c16f2d88457	-0.5112414115029748
99	0x3fd48ef148247a01	0.32122451825298987
100	0xbfd9a23b75960b76	-0.4005268715192679
101	0xbfe94c79754c1ee9	-0.7905852595294763
102	0xbfd1cad3b597e5a7	-0.2780045770046748
103	0x3fd938cf7b74dd84	0.39409243637370417
104	0xbfb5771ef4d4fcee	-0.08384889104216928
105	0x3fdc3f08f2888f35	0.4413473480692461
106	0xbf76425cb8e67cc8	-0.005434381672244366
107	0x3f92f0e00d32a483	0.018496990972071813
108	0x3feaea0ef9fc9da9	0.8410715944818793
109	0x3fb46f4a49dec489	0.07982315352889392
110	0x3f991f8fe88461be	0.024534462515562565
111	0xbffcf68da6728c93	-1.8101936818937119
112	0xbfcdab1c241c0996	-0.23178436053428858
113	0x3ff5ac7470013eb1	1.354603230971332
114	0x3f7414d20f002a93	0.004902668515578984
115	0x3fe7edc8626d95ec	0.7477762148307057
116	0x3fba056a63237923	0.10164513512015509
117	0x3ff0f74fcbd5a71a	1.0603788339889832
118	0xbfc207b4d72fc841	-0.1408601809230863
119	0x3fc694d2772b0e84	0.17641669100531854
120	0x3f9568923240a897	0.020906719510244
121	0x3fc50bbef5260949	0.1644209572805926
122	0xbfbafd947a0a330e	-0.10543182353485411
123	0xbfe57c9dfc53e46f	-0.6714620521808125
124	0xbfc0f84378d1e343	-0.13257640265853796
125	0xbfeb30570158b8d9	-0.8496508623409468
126	0xbfcc4e4a8e85c65e	-0.22113925894841463
127	0xbff46d5a555d1e21	-1.2766974768181927
128	0x3f8ed0725755b91c	0.015046017923591885
129	0x3f9b81ec01fa859b	0.02686280023647712
130	0x3fc2c6915d8d4be0	0.1466848093792512
131	0x3fc6685a83fe5e3c	0.1750596184253811
132	0x3fa1014e69e19c30	0.03321309130188188
133	0xbff6698c4fcd2229	-1.4007685773123149
134	0xbfd7c1d75a9da69d	-0.37120612954331894
135	0x3fdbfc1a84c6bf4b	0.43726218191567473
136	0x3ff9f0a14dee2665	1.6212475818778327
137	0x3fe826983be09ed7	0.7547112626534397
138	0xbfcf1b22641ddeed	-0.24301557434568313
139	0xbfd22bd7125ac3e5	-0.2839257888072651
140	0x3fa6c493000c979b	0.044468492275242265
141	0x3fc2baa09c2713ad	0.14632041573181934
142	0xbfda2b27f3cd8f98	-0.40888403710254684
143	0x3fd04a791e21403d	0.2545454782712147
144	0xbfd994d6e9bf1624	-0.3997094423942562
145	0xbfdedef542cdf19e	-0.48235827945588905
146	0xbfcc4f18464a100a	-0.2211637824258335
147	0xbff29385ef431b9a	-1.1610164018800107
148	0xbfdc3db40f046a8b	-0.4412660738613929
149	0xbff49f15e6b0c397	-1.2888392459246683
150	0xbf86c5c27ac66b44	-0.01111938416652481
151	0x3f6c5a2faede80d8	0.003460972910900844
152	0xbfd940b597e40edd	-0.39457454522219654
153	0xbfc80bbf1f6c1a7b	-0.18785847696581812
154	0xbfdcf693da122977	-0.45254989906302207
155	0xbfe7e34d8ecf56a0	-0.7464969434028781
156	0xbfe8d633e470f2d0	-0.7761477910749708
157	0xbff1ec94e2aad824	-1.1202591757005473
158	0xbfbf2cdf774dc38e	-0.12177845633210735
159	0xbff471d1630a90c7	-1.2777875775146172
160	0xbfd3fad0cc1c4371	-0.31218357021958015
161	0xbfd5f3aec7f15db4	-0.3429982140127905
162	0xbfd367d8711a7797	-0.3032132248425738
163	0xbfe115b74a5bf404	-0.5339008762672397
164	0x3fd312182eda6446	0.2979793984937412
165	0xbfc6c073d5f4c356	-0.1777481836993739
166	0xbfdb7160909fc40c	-0.4287949955315191
167	0x3fd08051f5a629e3	0.25783204068343774
168	0xbfd2f426cc0298d8	-0.2961518280302591
169	0x3fec25dc7f100670	0.8796217424098369
170	0x3fc8bb4fa9b72b29	0.1932162836731888
171	0x3fed497841e986f1	0.9152184760425525
172	0x3f84d64f0e9c6422	0.010174386628522273
173	0xbfa0d7db3754eedc	-0.03289685297428743
174	0xbfc858094949444f	-0.19018665388515152
175	0xbfb47980b6727684	-0.07997898535037434
176	0xbfeaee77e0e93ee0	-0.8416098969264247
177	0x3fb60d1766209cc2	0.08613725894302873
178	0xbfe556ec8c0de9c8	-0.6668608413158887
179	0xbfeb5da130081c69	-0.855179399310953
180	0x3fe3aeaeb63459ff	0.6150735434228521
181	0xbff1236b201d671c	-1.0711470846640117
182	0xbfdc5392f7b86ada	-0.4426009577888813
183	0xbfd19736b961d01d	-0.2748543558475392
184	0xbfd754d06524b828	-0.3645516383866174
185	0x3fbcb351c5ab3f26	0.11211119724179905
186	0x3fe709e4dbc8232c	0.7199577610600492
187	0x3f8aabe79d4571f1	0.0130231947775252
188	0x3fd2af52763ee6e7	0.29195081279213614
189	0x3ff242fd569ec02e	1.1413548835371432
190	0x3fdb1d2b18d86bb2	0.423655294669227
191	0x3f9acc3223114c0c	0.02616957034144822
192	0x3feb66ebf4639b23	0.8563136838173232
193	0xbfa11192ddb15277	-0.033337201654522745
194	0xbfb7ffa7f7f7bcf4	-0.09374475292110046
195	0x3fb654b20627cba4	0.08722984934119765
196	0x3fc01c50fd380f56	0.12586414684494213
197	0x3fb1ccec88461189	0.06953314139361146
198	0xbfd2352666bb9c83	-0.2844940188646847
199	0x3fd3b50509dc41a3	0.30792356455733677
200	0x3f99204a02836822	0.024537235644722107
201	0xbff6d27f5a1ed36f	-1.4263909836128865
202	0xbfc50f0c016787ed	-0.16452169483733262
203	0xbff48a9e51f8e40d	-1.2838423921623445
204	0xbff27b2b5ddc9a24	-1.1550706545327865
205	0xbff293026c3a8a38	-1.160890982406853
206	0x3f7b5d06ccff3bf3	0.006680513921266662
207	0x3fc24640201d65c5	0.14276887481791625
208	0x3fea8683c132d002	0.8289202474029482
209	0x3fdeec4c6e48eb74	0.4831725193977754
210	0x3febe9b72ebfc092	0.8722797310893091
211	0x3ff7d469046a366f	1.489357964749981
212	0x3fed4983ded199e4	0.9152240135124967
213	0xbfc5ec4c909d379e	-0.17127377568470775
214	0x3fed9962e9523f7f	0.9249739224487569
215	0x3fcca2a9774c1904	0.2237140495782982
216	0xbfc858d30069e625	-0.19021070022772438
217	0x3f6860e0400ce2e8	0.002975881565728467
218	0xbfc889d44852ba29	-0.19170621425060233
219	0x3fa96ad71b7ca95b	0.04964325151952905
220	0xbfb4706c3fea7dae	-0.07984043655823456
221	0x3fb99cd404e0c735	0.1000492584141995
222	0xbfc540de5348ca16	-0.16604212824457026
223	0xbff20a8bd4e0bb66	-1.1275747600118051
224	0x3fd868e211dbed8e	0.38140155548145394
225	0xbff07865c4774556	-1.0293939279984747
226	0xbfa48db574bc9b19	-0.040143652439203766
227	0x3fbece15fab5cb71	0.1203321206174175
228	0xbfd8d4d60762f61d	-0.38799048158020516
229	0x3fb3940fd49126b5	0.07647799434303233
230	0xbfbcab88436e64e5	-0.11199237486143294
231	0xbfc40517de9eaa08	-0.15640543336969892
232	0xbfb9fb87790d5814	-0.10149428086637641
233	0xbfa6c440895c4b5f	-0.044466034667627545
234	0x3f54ed317d3fbb6b	0.001277254418706265
235	0xbfbe89d0cc2fac87	-0.11929039940848628
236	0x3ff25dccd0f4de0c	1.1479004061092182
237	0xbfa63ca3c225f721	-0.04343139405226127
238	0xbfb712b6f7f77aac	-0.09012931398272411
239	0xbfa697df5288f109	-0.0441274441004414
240	0x3fdf52e17356809a	0.48943363440958765
241	0xbfb712dbdf97bc32	-0.09013151367956665
242	0xbfd1397d5b1e1863	-0.2691338910884779
243	0x4004e1b0dbeca071	2.61020061317327
244	0xbfd89c1eb8aec4da	-0.3845288089315325
245	0xbff63d12adb3e6d1	-1.3899103913558302
246	0xbffa7416103ffea4	-1.653341353870851
247	0xbff9a3f2ae3babc6	-1.6025263601284094
248	0xbfd327ff376c226f	-0.29931621944755354
249	0x3ff1e89f3e282a31	1.119292490768782
250	0xbfe4e9b61e5d455d	-0.6535292237332829
251	0x3fed05f3a5fccd7e	0.9069765321677747
252	0xbf997ddf98809f61	-0.0248942314939592
253	0xbf980f25c612a496	-0.023495283331304316
254	0x3fcb4717aad54c8d	0.21310706941094218
255	0xbfa6fd6b77c71b41	-0.044902189608868166

lstm1.weight_hh_l0 f8 [48, 12]
0	0x3fdb8560b0685703	0.4300157282572032
1	0x3fb1e19c2835204f	0.06984878522519121
2	0x3fd717707b8cf556	0.3608056265400895
3	0xbfd07f47c365316d	-0.2577685745389065
4	0x3fb36e1ba95ff05c	0.07589886555791864
5	0xbfc7a722cf4a15f7	-0.18478808518936748
6	0xbfa046fe2bfd9d25	-0.03179163252826304
7	0x3f8c4d5eb65155e2	0.01381944650544659
8	0x3f9be1084cfc4808	0.027225618075199548
9	0xbfc072c397924320	-0.1285023202986162
10	0x3fceecc8f03187b5	0.24160110214421385
11	0xbf8042f2c8049d07	-0.007940193871560653
12	0x3fa8390298c361a9	0.047309952876904156
13	0x3f9c497a71b7becd	0.027624047461300805
14	0x3fbcfc129f192338	0.11322132477029079
15	0x3fbf30f0731040ce	0.12184050378005226
16	0xbfaed9eab5288a69	-0.06025632344632898
17	0x3fc8cbd7c659c3fd	0.19372079072084594
18	0x3fd08ef4b58fca58	0.25872533541329323
19	0xbfbac512adf739f6	-0.10456959483347092
20	0xbfc73a6cd7319d66	-0.18147049434194712
21	0x3f93134e281ec4a0	0.01862833137392228
22	0x3fc45a86187fe70a	0.15901256748457399
23	0x3fc8007b2ddbdd41	0.18751468409730346
24	0xbfcc58e77281a3c4	-0.22146313754208624
25	0x3fd219c7ba734f94	0.2828234978489885
26	0x3fcd290777f9e18a	0.22781461103637596
27	0x3fbb37d35d274355	0.10632058166744447
28	0xbfa7990ee8cc4010	-0.0460896166970316
29	0x3fcc0a181c0aa929	0.2190580498621071
30	0x3fcc99a3e76d4e37	0.22343872833390474
31	0x3fcdd1ba57afb0d3	0.232962887588093
32	0xbfc03fe55fff143b	-0.12694995105099047
33	0x3fbe7d991f180c36	0.11910397538308434
34	0x3fcb727aa8b7823e	0.21443112600447195
35	0xbfc8d85dcc7d45e4	-0.1941029785617011
36	0xbfab74947c355e2e	-0.05362380996910719
37	0xbfadd4f8fbcb79e1	-0.05826547692935314
38	0xbfbc9d175d1c7057	-0.11177202246875716
39	0x3fca2c1bfd4c7cb7	0.2044711100397529
40	0xbf9107c5d7b8609a	-0.016631213466184215
41	0xbfbd7a265a012e1f	-0.11514510819795774
42	0xbfd16893fbb4ee18	-0.27200793820131386
43	0x3fb09e26df3f1a75	0.06491320562700216
44	0xbfaa4dd6bb1bff91	-0.051375112858294554
45	0xbfc45408fac06f4d	-0.15881454700217504
46	0xbfb40263220afa48	-0.07816142636418377
47	0xbfbf8dcaa2433f0d	-0.12325731717578155
48	0x3fa218ec6c074b11	0.03534640139300483
49	0xbfa2f69f8c687d03	-0.03703783596960799
50	0xbfc3223f1b639fa2	-0.14948262059556067
51	0x3f200750704b6c15	0.00012228829304814005
52	0x3f8dade1e1a49c9f	0.014491810511186918
53	0xbfbd07dd21d32909	-0.11340124202539327
54	0xbfa4906c9c1c17b2	-0.04016436963688309
55	0x3faee1d7eeaf7c26	0.06031679905549252
56	0x3f9384625f7a16ce	0.019059693410347127
57	0xbfc0e7cd40445407	-0.13207402837784363
58	0xbfc64893055a90fc	-0.17408979188360962
59	0xbfb45a365d5a561c	-0.07950153140185318
60	0x3fc0be7e30c97abd	0.13081338293246417
61	0x3fabcf6611d5c8ff	0.05431670158113099
62	0x3f66748a393b0909	0.0027411174467896243
63	0x3f663c14230fe90e	0.0027141946125058885
64	0xbfb62f56bbc96d9e	-0.08665983280791642
65	0xbfce32560f81ad4a	-0.2359111381259516
66	0xbfbe81281e5f8526	-0.11915827504664786
67	0xbfb85ed9bedcfc95	-0.09519730481859974
68	0x3fcded6376ee88d6	0.23380702311721419
69	0x3f8259cf3be14624	0.00896036054124056
70	0x3f6b709d36a4f1e8	0.0033495970320969078
71	0x3f9ba1f019fb9cb4	0.026984931550853644
72	0xbfb39b3c08e3922b	-0.07658744065299376
73	0xbfa6ab5fec78ba34	-0.04427623521438698
74	0x3fb281c55c3f994d	0.07229264738234527
75	0xbfc9cf163b8fc5b0	-0.2016322890117812
76	0x3fbd19125e17f553	0.1136638145180389
77	0xbfbccc797a31aefe	-0.11249503358129329
78	0x3fa9c2b2297662ea	0.0503135371793116
79	0xbfb07d4307195c32	-0.06441134379689187
80	0xbf78a697f815c065	-0.006018251065469914
81	0x3f931f51fb6482a8	0.01867416474226738
82	0xbfd0d0b66fc20ddc	-0.2627388087641671
83	0xbfa237a819953793	-0.035580876467619
84	0x3fb50e1134b514c3	0.08224589859772195
85	0xbfb2b6b68920e467	-0.07310047958243758
86	0x3fb4aa983c3530d4	0.08072806806484617
87	0xbfa841361d85a63d	-0.047372523406761215
88	0x3fad6b9db0c3a4c2	0.05746166975752366
89	0x3faf664039869b6b	0.06132698728770588
90	0x3fcc4d74e94429cc	0.2211137904162811
91	0xbfcc6d2783e24ed5	-0.22208112659119786
92	0x3f9f8cd583afc42a	0.03081067672968999
93	0x3fc04025ac5c05be	0.12695761600484262
94	0x3fb7aba54d716f30	0.09246285572720292
95	0xbfc65b55ea7ddf42	-0.17466234159268806
96	0xbfcc3d4820929530	-0.22062017050226634
97	0x3fda1146aef4e4e7	0.4073044498978348
98	0xbfe0723b27e97061	-0.5139442233589869
99	0xbfcd0e87f87de9c0	-0.22700595506087318
100	0x3fc8f0a8dfbc9271	0.19484435009612214
101	0x3fedcb6f7a95cbd9	0.9310834306946801
102	0xbfbf08aa88511a6b	-0.12122598484084228
103	0x3fd8ff603eae6f68	0.39058691140393487
104	0xbf88c6ca1a732de7	-0.012097910816371417
105	0x3fcbb8bb20e27f36	0.21657504182530268
106	0xbfd0f18a0abe6762	-0.2647423844260769
107	0xbfd26a6b9c5e803a	-0.2877453829805777
108	0x3fc5a9e12f12cb37	0.16924681471354017
109	0x3fc98ebfb95526d5	0.19966885137028237
110	0x3fda53a6be6d1698	0.4113556728010308
111	0x3fc7945964eaa034	0.18421475818218058
112	0xbfd54c66b092c7d2	-0.332788155016826
113	0xbfc4269bc406e60d	-0.15742823669079123
114	0x3fe2ab047d3c2f24	0.5833761640546737
115	0xbfd153cbe0519154	-0.27073952585330585
116	0x3fd62928c02ea9fb	0.346262157133111
117	0xbfa5af97357ee90e	-0.0423552754213735
118	0x3fd7241cab54ac54	0.36157910090941425
119	0x3fa3544f6aef93db	0.037752610973065
120	0x3fc3bdec8eb3fea1	0.15423352210927013
121	0x3fdc7d32e7f5ac81	0.44514153148947605
122	0x3fdc4e72454d3116	0.44228798644759715
123	0x3fc743808f5135b8	0.18174750326072142
124	0xbfbec1a6ac8f730c	-0.1201423808374324
125	0x3fc02fc7b356df5c	0.12645813233188619
126	0x3fdc42f74688def6	0.4415872753920519
127	0xbfb598ed33b84f55	-0.08436472428030346
128	0x3fd35c66fb65abed	0.30251478720191366
129	0xbfb10d88a30aaacc	-0.06661275845059861
130	0x3fe132b681bc5ab4	0.5374405416394752
131	0xbfb7386459ed7271	-0.09070422358986165
132	0x3fbf4202aa877724	0.12210098899182903
133	0x3fc759a07f7050fd	0.18242269728273888
134	0x3fb0a890542942cf	0.06507207922664836
135	0x3fba5dce16d97061	0.10299385125966999
136	0xbfc626eebc72c52e	-0.17306312753275094
137	0xbfd4a43289569b96	-0.322521814460225
138	0x3faa3a23570ea2ed	0.051224808098884946
139	0xbfd0130af366d7e4	-0.2511622788400685
140	0x3fa3b87245866667	0.03851658915227745
141	0x3fb6a2a40d058f1b	0.08841920202172242
142	0x3fcb958cbd3024d6	0.21550139653871864
143	0x3fb4850dd8f51889	0.08015524432002698
144	0x3fc1895811efb42f	0.1370039069728661
145	0x3fc6e556bf9198a2	0.17887386659567023
146	0x3fd374abf32dd650	0.3039960741801666
147	0x3fb22e2aee6c60d9	0.07101696320421826
148	0xbfb67dd5ff242926	-0.08785760382685179
149	0xbfd5669398b617ab	-0.33438577569210776
150	0xbfa969516eef3831	-0.04963163832836449
151	0xbfb3319a6e3ed4c5	-0.07497563544787329
152	0x3fb9bfcd9bd04ddd	0.10058293394131775
153	0x3fc3f524e410d138	0.15591870437641275
154	0x3fb734b690ecd047	0.0906480888195925
155	0xbfb204bf932c876f	-0.07038495391000564
156	0x3fd6e60279a806d2	0.3577886760759671
157	0xbfc4debcea0c6ae8	-0.16304742267751426
158	0x3fdb37e08af7b822	0.4252854687791815
159	0xbfcee8f0e5b013f7	-0.24148379531121097
160	0x3fb6740595effc48	0.0877078524645053
161	0x3f984509f26e07ee	0.023700862333050958
162	0x3fe09d89b65ffe4b	0.5192307054530344
163	0xbfd0ad2faa4b6a0c	-0.2605704463036609
164	0x3fcb07c5a545a533	0.211174684237713
165	0xbfe1a5c1b9611769	-0.5514839764298191
166	0x3fea392b80d428bf	0.8194787517725429
167	0x3fca4f9be9762321	0.20555447482572567
168	0x3fd245b2b52bdd0d	0.2855040330172905
169	0x3fb3ee9b5f980345	0.07785960277398114
170	0x3fe0538629d0f554	0.5101958100055222
171	0x3fd4767a1e0971c6	0.31973126347818626
172	0xbfd34c56c225a40b	-0.3015343566863186
173	0x3fc1060bc3c56388	0.1329970079339342
174	0x3feb81f9c51ad991	0.8596161699013455
175	0xbfcf292dcd85c61e	-0.24344418082505198
176	0x3fef5bb1aaab172c	0.9799431165090247
177	0xbfde8d9b9a427a6e	-0.47739305557653366
178	0x3fbea388fd4b9a6d	0.11968284782379053
179	0x3fb69ce3ba492919	0.08833144472115285
180	0xbfe1454ef4cbfd1a	-0.5397105008304692
181	0x3fe400cf6f4f23bc	0.6250989126211759
182	0xbfe2eddf7bdf0dca	-0.5915372294770631
183	0xbfbe67bd7b94483e	-0.11877044932433109
184	0xbfc686a4d21f6d17	-0.17598400363827046
185	0x3fa3d473d28906b8	0.03873025841722949
186	0x3fcce030e8eb8a7c	0.2255917680077636
187	0x3fd52af33ea1d17c	0.33074647060791285
188	0x3fe12102484b6095	0.535279408645709
189	0xbfdd380a376e7bb2	-0.4565454045604681
190	0x3fca6435a59a1680	0.20618315301924284
191	0x3fdd15b2d1cafce9	0.45444937217321396
192	0x3f9c316e7af3e0f1	0.02753231645053317
193	0xbfa4688da27916d2	-0.03986017807305377
194	0xbfcc6eab63aa0402	-0.2221273647919873
195	0xbfb29ebc8c14d2df	-0.07273462696032194
196	0x3fca3fe403b526cb	0.20507478886638916
197	0x3fd3a73b42251b24	0.3070819993921978
198	0x3fbf376de374eff9	0.12193953326362807
199	0x3fcfab19893c9ff6	0.24740904999748609
200	0x3fc5ca02c9ff56b9	0.17022738326220635
201	0x3f8279fd3b9b6106	0.009021738416251878
202	0x3fce0213fa3caa88	0.23443841665842435
203	0x3fe0924b96b38a5f	0.5178583091149668
204	0x3fcc85fcb6d81794	0.22283896377501533
205	0x3fe5ffc5d43f6013	0.6874722619495536
206	0xbfd300da72890c47	-0.2969270819195952
207	0x3fcf041ed0e09285	0.242313243857229
208	0xbfc5f73d02ed6f59	-0.17160761492675183
209	0xbfc72986c246bdec	-0.18095478521489328
210	0x3fc36a7e6220611a	0.15168742934543716
211	0x3f3dd17ec8b7d527	0.00045499177278370207
212	0x3fdbd8f1e251606e	0.43511626340251197
213	0xbfc62eec8962ec5b	-0.1733070059616207
214	0x3fcf1f499f2a92f2	0.24314232131759855
215	0x3fa31e3b8ce22133	0.037340031573935305
216	0xbfd4096e914e21d0	-0.31307567777596734
217	0x3fbdb5bfb758912c	0.11605451799602368
218	0xbfdfc47bd4ddf6c8	-0.4963674143581156
219	0xbfc20b3755f95d49	-0.1409672899051009
220	0x3fd120337945c60a	0.26759039729140055
221	0xbfb5cb55971721a7	-0.08513388575295854
222	0xbfc20b32c90927b3	-0.14096674743842427
223	0x3f690b85ad1428e0	0.0030572520123587216
224	0x3fc5528d2b48e34d	0.16658177007209432
225	0x3f9e5222edddd55b	0.029610200660916557
226	0xbfd25eb71afcc0fe	-0.28703096042137577
227	0x3fc6093ff0548380	0.17215728030080513
228	0x3fdbb4b03e168fa4	0.4329033476189983
229	0xbfc41fb30afe0398	-0.1572173885033663
230	0x3fc5ef4ca62b8cfb	0.17136533845687282
231	0xbfcd1aeb11e9f433	-0.227383979556096
232	0x3fb8376108e13be8	0.094595017116475
233	0xbfb736a30ba05525	-0.09067744287343212
234	0x3f4763ed1277ce89	0.0007138164118587069
235	0xbfd42795a3204601	-0.31491604738502593
236	0xbf9438cc267b2b70	-0.019747915123655202
237	0xbfb40233cca8333c	-0.07815860506543698
238	0x3fdcb1c0afcf26fe	0.4483491627585038
239	0x3fd66400c60d2d0a	0.34985370007480354
240	0x3fc2661426f018aa	0.14374019528640264
241	0x3fc2e6ad2fc254e2	0.14766468841540986
242	0x3f60e3699d925536	0.002061563759137154
243	0xbfde78aae10dc101	-0.47611495950606303
244	0x3f91c645f80b34a8	0.01735791517676391
245	0x3fdac45fff0965c7	0.4182357779114593
246	0xbfcfcce4277bf456	-0.2484402840417796
247	0xbfc23ae462e0c375	-0.14242224529291617
248	0xbfd1a424a5246f5b	-0.27564350249462216
249	0xbfd6ad7bb2e5d3b7	-0.35433857412800357
250	0x3fb8bd6ded18ec7a	0.09664046324262357
251	0x3fd2f296f5c937ad	0.29605649950542096
252	0xbfc541dbac9682ce	-0.16607232978005587
253	0x3fa0ec914e9a598c	0.03305486759670648
254	0x3fc4a026d86912d9	0.1611374432269688
255	0x3fa2d07cd82ce2ad	0.03674688471659713

lstm1.bias_ih_l0 f8 [48]
0	0xbfd40831f7d7aecf	-0.31300019458170153
1	0xbfd6a9d06072055e	-0.35411462229247614
2	0xbfb0dcfff35e134c	-0.06587218944157519
3	0x3ffdbac4e710656d	1.8580979371966706
4	0x3ffc24636893f908	1.7588838658408026
5	0x3ffce76aa4948e17	1.8064981869619083
6	0x3ff9d4f6827e0a1c	1.6144929025036907
7	0xbfdb1cb2d3674fa7	-0.42362661976698707
8	0x3fe50a7d6c5b147e	0.6575305095981461
9	0xbfdb45e27a37401e	-0.42614042220248105
10	0x3fd7d587a6373d05	0.37240782958993207
11	0x3fecef3f8048ff19	0.9042050843781652
12	0xbfdd8e4564537da2	-0.46180853650545306
13	0xbfe92ec986a71b88	-0.7869613294541162
14	0xbfe6261b160a4ef6	-0.6921515875314685
15	0xbfc3b808b99f4725	-0.15405377448637939
16	0x3fd1a8bbd6162e0e	0.27592368990801297
17	0xbfd462ca4468ae2a	-0.3185296695762384
18	0xbfc387ddf0c63284	-0.1525838304190935
19	0xbfe41220ae5946a2	-0.6272128491638862
20	0xbfcdf715ae63af17	-0.2341029263983436
21	0xbfc7e1b93a6d9b64	-0.18657603600442052
22	0xbfc7baa72f016265	-0.1853836993712036
23	0xbfe9039f07c3f2b8	-0.7816920425098806
24	0xbfdd62a525c29df5	-0.4591458195449996
25	0xbfd7dd8f4b166e8f	-0.3728979333188613
26	0x3fd59d9caea9c674	0.33774487549735643
27	0xbfadeb4b78a49d77	-0.058435781933719726
28	0xbfb80fdeca2316b3	-0.09399216113078061
29	0xbfb952c87bb0615c	-0.0989194204306662
30	0xbff086788d136d2a	-1.0328298102165925
31	0x3fd4f26ee81faa14	0.3272969500382328
32	0xbfd948e0fac48757	-0.39507317055732954
33	0x3fd1021a0d994308	0.26575328186031344
34	0xbfd4b5bc003f608b	-0.3235921862046857
35	0xbfdf032fa287e2f8	-0.4845694625105774
36	0xbfea4f0e7f0fb33a	-0.8221504670778821
37	0xbfc3de0c66b3ce47	-0.1552138806797407
38	0x3fbb5d72ed848fc7	0.10689466761374354
39	0xbfda0a928deb481f	-0.40689529284748177
40	0xbfd8062b0becd78d	-0.37537647404257585
41	0xbfe2f0e14eb1cb3b	-0.591904309940538
42	0x3fe9263ff5d7cd16	0.7859191705341881
43	0xbff1787228c58007	-1.091905745757687
44	0x3ff2ad576c374eb3	1.1673197009267084
45	0x3ffe404758d48de8	1.8906930417950836
46	0x3fe2046f2c1b11c8	0.5630412923279033
47	0x3ff78bf8fb1ed4df	1.4716729936019914

lstm1.bias_hh_l0 f8 [48]
0	0xbfd74af457d7ae94	-0.3639498575055111
1	0xbfd66c5fa072056a	-0.3503645960664331
2	0xbfd3b0475cd78363	-0.30763420168482564
3	0x3ffe5c21e7106576	1.8974932695330984
4	0x3ff9d0fab093f899	1.6135203263834568
5	0x3ff62adaf4948e6e	1.385462718383589
6	0x3fff5f8a467e0a90	1.9608252290351267
7	0xbfd677a91367522b	-0.3510534944046266
8	0x3ff0f2659a2d8a12	1.0591789267133476
9	0xbfd2d2395a373f56	-0.2940810566915294
10	0x3fd06fb9b6373e00	0.2568191794825623
11	0x3fefd7d62048ff13	0.9950972204751188
12	0xbfc34ff548a6f872	-0.15087762877914518
13	0xbff10dc0d3538d40	-1.065857720845841
14	0xbfe872bee60a4e80	-0.7640070431684336
15	0xbfa26f39e67d1773	-0.03600483835775394
16	0xbfb260cee7a73f72	-0.07178967624281343
17	0xbfe243381234550b	-0.5707054477267389
18	0x3fd60ad0479ce899	0.34441000932168603
19	0xbfd13b3becb28e00	-0.26924036135662277
20	0xbf8e2fd0e63ac7c6	-0.014739639307069907
21	0xbfc464cc5a6d9a2f	-0.1593261186164496
22	0xbfc718112f016245	-0.1804219703215201
23	0xbfeac0a25fc3f362	-0.8360149259966472
24	0xbfdcd9e5d5c29e00	-0.45079942584058585
25	0xbfdc794e8b166da3	-0.44490398009085136
26	0x3fdeb435aea9c616	0.47974912697745375
27	0x3f691fd875b64b60	0.003066942952224691
28	0x3fc575e81aee75ca	0.16766072573675067
29	0xbfc578d83dd83117	-0.167750387380132
30	0xbfe6fc0dca26d99c	-0.718268294170048
31	0x3fc17d79d03f4dde	0.13664171856235802
32	0xbfd9dfd07ac4879b	-0.40428554524452814
33	0x3fa3ab396cca10cf	0.03841571286196343
34	0xbfd8d1bb203f6083	-0.38780096196342856
35	0xbfe2d5dd5943f06e	-0.5886065238442038
36	0xbfe06e2ea70fb23e	-0.5134499800602226
37	0xbfb4371f0d679bbc	-0.07896608426345514
38	0xbfc5985cc93dbc12	-0.1687122328398521
39	0xbfcf1c2f1bd69536	-0.24304760798728758
40	0xbfc72a2117d9ab72	-0.18097318329395368
41	0xbfeb478c16b1cd2d	-0.8524837916615177
42	0x3fe2cbf8edd7cd67	0.5873989720698035
43	0xbfefa42b718b00ca	-0.9887902467380851
44	0x3fecaa68c86ea1cb	0.8958019175234367
45	0x3ffc316800d48dc4	1.7620620758469707
46	0x3fe2a2c8fc1b127c	0.5823712276401944
47	0x3ff5ff9e631ed449	1.3749069091693562

lstm1.weight_ih_l1 f8 [48, 12]
0	0x3fbfbe3b67455f01	0.1239964606405657
1	0x3fa5602288f0e264	0.041749076095986465
2	0x3fbec7fadb0be009	0.12023895118534268
3	0x3fc9b8b546e29564	0.2009493442648519
4	0xbfc31850dfadc515	-0.14917956277671665
5	0xbfd59392977cb36a	-0.3371321181646666
6	0xbfa4c18a56170d69	-0.04053909588722144
7	0x3fd246bdfdbc4089	0.2855677583584187
8	0xbfbcdecae7efefa3	-0.11277454531221891
9	0xbfb83ae6f7e086fd	-0.09464877654729871
10	0xbfbab90abfdd8ad6	-0.10438601669515477
11	0x3fd27aaf2a7844f1	0.2887380518669281
12	0x3fdc49ce4b2e1c1e	0.4420047506504846
13	0xbff1c21f6823e1a9	-1.109893233106144
14	0x3fd777345c6678ed	0.36665066741433244
15	0xc00b38d9c444f317	-3.402759106973814
16	0x4007d2c3340f8321	2.9779113833650546
17	0x3ffc8f8fa50d6352	1.785049099669966
18	0xbffcf56b50a3e4ac	-1.80991679668504
19	0xbfe0905b605a227d	-0.5176216966511472
20	0xbfe2f0c9cf797907	-0.5918931057201754
21	0x3ffd879b0659cce7	1.8456068275525526
22	0xbfb6e5ed478ee670	-0.0894459056570669
23	0x4001524889063d3c	2.165177412512689
24	0xbff55d1096fefb4e	-1.3352208994180788
25	0xbff392d09e7118cd	-1.2233434857494558
26	0xbfdc1fff4f44844f	-0.43945296040516707
27	0xbfe6896c63a980b6	-0.7042753168607507
28	0x3fbc8537a0bfc4a2	0.1114077346280902
29	0x4006089fbebc8e45	2.754210939530625
30	0x3fded6a13b268b67	0.4818499639169915
31	0x3fbd04b17a369d40	0.11335286363338515
32	0x3fe203548a95c089	0.5629065233934095
33	0xbfec1ad54c96c5ea	-0.8782755370977473
34	0x3f9a98a66cac24a3	0.02597293890270137
35	0x4000c7bc5c88f93b	2.097527239732839
36	0xbfd431a0ebf5dc68	-0.31552908938414825
37	0xbfb2d81731de4730	-0.0736097809551921
38	0xbfd4485c22b8df01	-0.31691649809680206
39	0xbff4b204eb7d90e2	-1.2934617232177108
40	0x3ff0fb5395620e06	1.061359008338401
41	0x3ff87ac4caf85751	1.5299728325384943
42	0xbfca13ce1a1e36b2	-0.20372940326017425
43	0x3fef0d9f8f34f34c	0.9704129979141753
44	0xbfd8efedc056ca3f	-0.38964408667667166
45	0x3f99a6636e17b374	0.025048783869283622
46	0xbfcc581fac6620bc	-0.221439322642487
47	0xbfc2c304a87acb0c	-0.1465764830259889
48	0xbfe6816b1853db79	-0.7032981372020536
49	0x3fd3b6dd28be5c1a	0.30803612688890925
50	0xbfe2452cec66b2d1	-0.5709442727289461
51	0xbff28a5611dc4157	-1.1587734887762815
52	0x3ff199a5a72cb86f	1.100011494661455
53	0x3fe5dedf29741128	0.6834560212742291
54	0xbff73a9988c266de	-1.4518065778888096
55	0x3fe6eaac7937fe3b	0.7161466949036773
56	0xbff1222498dd2519	-1.070835682987598
57	0x3ff25fda9edb7f21	1.1484018521659396
58	0xbff05ae727de4e4e	-1.0221931035383878
59	0xbfe48171bde7c2d4	-0.6408013066375937
60	0xbff05ca4493e9f00	-1.0226176129453393
61	0xbfeef3aa11ba4db6	-0.9672441812748989
62	0x3fbecd4dc4083d17	0.12032018695775935
63	0xc011d211a7118f35	-4.455145464369527
64	0x400ee69464d10af1	3.8625877262396604
65	0x400217f3e5cbc10d	2.261695666580755
66	0xc00ecfa76c49bff7	-3.8513935527807877
67	0xbf95c53e884f3f9e	-0.02126023966758305
68	0xc005ce53522757db	-2.72574485952917
69	0x400978c9e9dc960f	3.183978869480377
70	0xbfd7e903b705bd06	-0.37359707711489454
71	0x3fe6825a75249456	0.7034122741648712
72	0xbfee582c9b6420d3	-0.9482634577734878
73	0xbfe1f6270565626d	-0.5612979035750648
74	0xbfeba6129e6efc2e	-0.864022550049304
75	0xbff65b3693b60bf6	-1.3972688455548883
76	0x3fc451c2887f3552	0.15874511399162344
77	0x3fecbaf6acfb077c	0.8978227022673617
78	0xbfe9fa3d2a863291	-0.8117967443991622
79	0x3ff2cf6a8775da46	1.1756387034817108
80	0xbff7e74d961fda31	-1.4939704765544202
81	0x3fdad15a60b60c84	0.4190278953976263
82	0xbff08d49e130ea28	-1.034494285252217
83	0x3fe1f7b79807fafe	0.5614889115675792
84	0x3fdb2bd77b31119c	0.4245508864444447
85	0xbfdbf7838d860092	-0.4369820482315926
86	0x3fd0750d8532724d	0.257144336772204
87	0xc0076d0a2eb97604	-2.928242077860661
88	0x4004e331b92a4ea2	2.6109346834217186
89	0x3ff462e40014ab8f	1.274143219294931
90	0xbff7fe9bfd4907a6	-1.499660481830213
91	0x40066d3e1b3a576e	2.8033411147288723
92	0xc011692fc0b47496	-4.352721224798321
93	0x400313b70269782a	2.384626406520529
94	0xbf79285be313533b	-0.006142004903456673
95	0xc00d06f3dcd60afb	-3.628394818574973
96	0xbfb614035af5005b	-0.08624287577276972
97	0x4006429ea591fc2c	2.782529157178507
98	0xbfc991dfb122c7f3	-0.19976421498500904
99	0xbffc0d207cf4adb9	-1.7532048111996643
100	0x3ffbb54ceb642005	1.7317628092732786
101	0x3ffeca958aad1603	1.9244590203319383
102	0xbfe784f1b80854d1	-0.7349785417924527
103	0x3ff06228ae2995a5	1.023964577028303
104	0xc004c0d748bcb81d	-2.594160621890309
105	0x3ffe1f08c333a834	1.8825767159528484
106	0xbfc07796a66f8c8e	-0.12864955069298784
107	0xc012aa8a016c2c0c	-4.66654207442026
108	0xbff8a20f1d33f66a	-1.5395651951543194
109	0x3ff9b4e097931b32	1.6066595002063875
110	0xbffe9cd136a636e2	-1.9132854590165427
111	0xbf8a0e610d4511fb	-0.01272273847337945
112	0xbfdd046ad8d6a07e	-0.4533946149408691
113	0x3fad81fa159d929a	0.05763226999150568
114	0x3fab7699b6e57128	0.05363922460193954
115	0x400364a83c1b80c5	2.424149007405591
116	0x3f953c8c65662b77	0.02073878640070911
117	0xbfc9a611de863220	-0.20038054814757889
118	0x3fb417a6e839a5b8	0.07848590058860949
119	0xbff1e61b325bdd4d	-1.1186782805578617
120	0xbfaa4b0b2ee26e8d	-0.0513537878734641
121	0x3ff676a2cef76b56	1.4039638599994837
122	0xbfcfa503eb03f162	-0.24722336745606827
123	0xc011d3be758925ac	-4.456781231399344
124	0x40095f7264e142a4	3.1716049081081383
125	0x4009fca3776a9c74	3.248358662549032
126	0xc0118e7cebdcc803	-4.389148412084981
127	0x3ff518caacdedb9d	1.3185526612048541
128	0xc0083c3a57075275	-3.029408149634316
129	0x40087acbb99501b1	3.0599588869665344
130	0xbfb1054614356ae0	-0.06648672097564257
131	0xc00def4279273ec4	-3.741826006422203
132	0xbfbf018ba698139b	-0.12111733262288597
133	0x3fd58a84ffd9a6b1	0.33657956109400816
134	0xbfda2a772c40f997	-0.4088418895879839
135	0x3fd6ad4d137781eb	0.35432745839173546
136	0xbfd2bf68775d831c	-0.29293262154355815
137	0xbf990ccfab1b9b01	-0.024462933367341403
138	0x3fb0ea192b7dd307	0.06607205688289862
139	0x3fdf311815105d14	0.4873714643194529
140	0xbf962f57b8cdac84	-0.021664972929482676
141	0x3f9ceb83691545e9	0.028242162026179605
142	0xbfd31e64c070e34a	-0.2987300757700281
143	0x3fd999a854e94482	0.40000351230725795
144	0x3fb17d31c372c823	0.06831656476677543
145	0xbfb426de47f483f8	-0.07871808296887639
146	0x3fd58e2cb964403d	0.33680265526436753
147	0x3fc2946be3df6039	0.1451544630679125
148	0xbfd88d6d4e345bdd	-0.38363201749001324
149	0xbfd891d37e96d90f	-0.38390052187186624
150	0x3f93b5f8641b1371	0.019248849019976647
151	0xbfa4a9bd654f07c7	-0.040357512108598885
152	0x3fc2c311b0f11f40	0.14657803668728242
153	0xbfd1885f059c37e7	-0.27394843623994664
154	0x3fc41830fbe12382	0.15698826121140647
155	0x3fd05547798c7c22	0.2552050292014788
156	0x3fde69c4c51e92b9	0.4752056050295255
157	0xbfdf2f2ab053e5b2	-0.4872538301420618
158	0x3fca515f2e843e72	0.20560827037160184
159	0x3fe207ff02bd0e76	0.5634760907636991
160	0x3fd84e1173d14991	0.3797649031668238
161	0xbfef6ad15d993031	-0.9817892864316545
162	0xbfda28efff148a8d	-0.4087486258523903
163	0xbfe40b58412d7c4c	-0.6263848565103074
164	0xbfe3bbe3ca3e7884	-0.6166857671812669
165	0x3fb2806478f6de85	0.07227161362868102
166	0xbfbda2f15d029452	-0.11576756020311166
167	0x3fc435a41153d4e4	0.157886990032842
168	0xbfe1ecbab730bb3b	-0.5601476266800555
169	0xbfe4676d3b8872e3	-0.6376253283266035
170	0xbfb8ba1fc983a685	-0.09659002942830781
171	0x3fd5222b890229f8	0.33021057491046646
172	0xbfe170caed211891	-0.5450186377936622
173	0x3ff53aeadb91b0ae	1.3268841339986852
174	0x3fda2ea3ec5933a8	0.40909669953253536
175	0xbfc4f404c1f7a7af	-0.1636968562227685
176	0x3fe41b99831821a0	0.6283690987047983
177	0xbfdfacca439486a0	-0.494921270366925
178	0x3fc95f13f84564b9	0.19821405050860166
179	0x3ff2e1a2726be451	1.180086562117385
180	0x3fe13c9f7154d164	0.5386502469541878
181	0xbfd25d4200155206	-0.2869420052350339
182	0x3fc61b85640b063d	0.1727148760310672
183	0x3fdb567fae9b2390	0.42715446521156597
184	0xbfd8d920cceb73fd	-0.3882524491471598
185	0xbfaf09e1e2d9cdd5	-0.06062227148222702
186	0x3fde15102ed47aa3	0.47003559659234834
187	0xbfe26fd348541631	-0.5761505520501428
188	0x3fdfd30ecf13c928	0.49725694868461057
189	0xbfd98ff4e35023d3	-0.3994114131788226
190	0x3fd5bc022f7459bb	0.3396001304075999
191	0xbfb998666b272f8f	-0.09998169055978522
192	0x3fd01a73af2dc889	0.25161449534710606
193	0x3fd01e8af8cca903	0.251864188163964
194	0xbfa2c52d609e5206	-0.036660593075030376
195	0x3fd3da349ff69ce7	0.31019321080607515
196	0xbfd3429d63827a17	-0.3009408447050261
197	0x3fb239af324796c1	0.07119269349604009
198	0xbfb101e839b17883	-0.06643535049940578
199	0xbfc6e97e4eaf451d	-0.17900065271400303
200	0x3fb8a357ce5a48cf	0.09624241626650874
201	0xbfb6b4f82114ff8e	-0.08869887168566334
202	0xbfa568521335fb39	-0.041811528058124776
203	0x3fd3e276d4fad24a	0.3106972770577029
204	0x3fb760027aad7ee7	0.09130874152242151
205	0xbfe2f2854e8009f0	-0.5921045811849677
206	0xbfc19dc34d78ad57	-0.1376270416525169
207	0x3fe1e084654f4a87	0.5586568812089617
208	0xbfda238a3bf69b9e	-0.40841918807785216
209	0x3fdccdde9d84ef6e	0.45006528265707046
210	0x3ff01ab3bc586202	1.0065190655933525
211	0xbfba14cc16a32596	-0.10187984039943951
212	0x3fef8fdceffe44cb	0.9863114058845438
213	0xbff5fbe863b0262e	-1.3740009206834531
214	0x3fb4a409aa31b163	0.08062801747445784
215	0x3fed885b53268429	0.9228951095611865
216	0x3fb67ff5d03932fc	0.08789001782970368
217	0x3fc61b6c8ba646ff	0.17271191424202212
218	0xbfb9c35bf13f9d91	-0.10063719405990514
219	0xbfc7acdc1a348de3	-0.18496276168399026
220	0xbfc9149510751fe7	-0.1959406214102721
221	0xbfb3a9e870a9340e	-0.07681133986007202
222	0xbfc63e14d71dff12	-0.17376957420128086
223	0x3fdf76989ad4bea7	0.49161353225916077
224	0x3fb7e99a83c2eb16	0.0934082576449494
225	0xbfd58cefb3aa064f	-0.3367270712406922
226	0xbfbae95999e7042a	-0.10512313849814406
227	0x3fae058f377ecc3c	0.05863616516526135
228	0xbfcc92dc114ca48b	-0.2232318005056054
229	0xbfd4c25ec98a7731	-0.32436341935850793
230	0xbfc27194350c6592	-0.14409115400557632
231	0x3ff6c0892d3c32a6	1.422005821895405
232	0xbfe694c3b10536aa	-0.7056597192219745
233	0xbfde851386b87100	-0.47687233120247186
234	0x3ff1fe36cea2ad75	1.1245639869401576
235	0xbfd5b7c55a8c8320	-0.33934148638404515
236	0x3feec70245dc0366	0.961793075985139
237	0xbff1a26dcd1a6ac3	-1.102155495819418
238	0x3fbbc4b438eecb61	0.1084702147480079
239	0x3fdb7528c4adeb92	0.4290258331963567
240	0x3fc2f190f1ed4040	0.14799701512174757
241	0x3fe4bd01b2c82880	0.6480720989068374
242	0x3fd0590092febe88	0.2554322658061001
243	0x3fe26d7fb157c659	0.5758665527084289
244	0xbfd67192b3f9c42c	-0.3506819493841842
245	0xbfe96422a7497199	-0.7934735553094924
246	0x3fd91abd98f0611b	0.3922571176094764
247	0xbfdf08a1fb93eef1	-0.48490190094138
248	0x3fd80df2985bc7dc	0.37585129622232016
249	0xbfc17e5ae5c3f89d	-0.1366685506727138
250	0x3fb163bdc50d1484	0.06792818127458317
251	0x3f8d229cce8cf0a5	0.014226174405500844
252	0xbfe8174d5536d5cc	-0.7528444923724975
253	0x3fe47ff796be9b5b	0.640620989249196
254	0xbfe94dce0dd0656a	-0.7907476682477583
255	0x3fccc24e27128598	0.22467972667531622

lstm1.weight_hh_l1 f8 [48, 12]
0	0xbfc2421d319f75d8	-0.1426426403331067
1	0x3fca4daff0ff89da	0.20549582736482713
2	0x3fcd19d6eeddb963	0.22735106147178916
3	0xbfc96560707d9b62	-0.1984062718649638
4	0x3fda558153d9c6be	0.4114688223699935
5	0x3fca88d64d5ede86	0.20730093744144912
6	0x3fc9e5c232aaff31	0.20232417558690366
7	0xbfd12f6bd023a308	-0.26851935697645546
8	0xbfc7fb73a7276a68	-0.18736119901480497
9	0xbfbc6e4756a62114	-0.11105771890118304
10	0xbfcea2a66da50a34	-0.2393386874556015
11	0x3fc375c6190f1178	0.1520316717488972
12	0x3fa4535e0192fd82	0.03969854134765695
13	0xbf95b775d8b4a132	-0.021207658149394244
14	0x3f758217286caf9a	0.005251017056064367
15	0x3fc19682e11df0a0	0.13740573875464168
16	0x3fcc0e56c3a541c5	0.21918758919720296
17	0x3fd8521ca7bb1617	0.38001171474420076
18	0xbfc4d747e27ff8f6	-0.16281984862866467
19	0xbfc919a0fa954dbd	-0.19609462962635674
20	0x3fc5d8677ed4a2db	0.17066663449192884
21	0x3f77624a98e0bac0	0.005708972354155406
22	0xbfa14f28b5ff9066	-0.033807060448254586
23	0x3fb9aa24f90a396d	0.10025244789196615
24	0xbfba9c6d452c0486	-0.10394938410537877
25	0xbfa273932d782c36	-0.03603801660582244
26	0xbfd22ff53a9d38f4	-0.28417711948431124
27	0xbfa1cb114576aa2c	-0.03475240681594402
28	0x3fd7cb06da5b2435	0.3717667705901165
29	0xbfbd5c4f6567d512	-0.1146897909710172
30	0xbfbc71e1c458020c	-0.11111269992398592
31	0xbfb9f97b8c1e08a9	-0.10146305247147559
32	0xbfcb96cd0f1c9e9f	-0.215539581660086
33	0x3fadabc1d73e5864	0.05795102837071012
34	0x3fa08767447bb3fb	0.0322830458734202
35	0x3fb3295550f0af07	0.07484944559172045
36	0x3febf439db488579	0.8735627444149677
37	0xbfd92bbbf2622627	-0.39329432173016915
38	0xbfe393266b46a7da	-0.6117126555666303
39	0xbfdececab4317d7d	-0.4813715705585862
40	0x3fe65df3737d4c7c	0.698968625607804
41	0x3fe762e9d82c3968	0.7308243963359873
42	0x3fde63c22c6486f6	0.4748387750170048
43	0x3fc69bd844394730	0.17663100558507372
44	0x3fe7b9040822a005	0.7413349303142246
45	0x3fe55fe0718111fe	0.6679537026289493
46	0xbfe9413847e738df	-0.7892114071235276
47	0x3fe5bebbf9fb1a9f	0.6795329935492481
48	0x3fd11574138e3e04	0.266934413049029
49	0xbfa45a7c46e323a8	-0.03975284924815209
50	0x3fd018147bacc332	0.25146972730276496
51	0xbfc21d0ab5e99f43	-0.14151128656816966
52	0x3fcbc2ed859260e0	0.21688622495708554
53	0xbfd2adb3f5dd231b	-0.29185198793543216
54	0x3fc2e23a0db68ffc	0.14752889318071982
55	0x3fcdc3b36afff68c	0.23253481602289516
56	0x3f8318e2f7cac537	0.00932481116010085
57	0xbf993d0ab13fc92e	-0.02464691836207427
58	0x3fc85baa7fc9992d	0.19029742469428737
59	0xbfc58d198cea85d8	-0.16836852436703853
60	0xbfe04222ab61ba07	-0.5080731723117545
61	0x3fe9dbee32e00699	0.8080969804434118
62	0x3fcaae3871e42ad7	0.2084417873487243
63	0x3fc89d495c8ca858	0.1923000051404553
64	0xbfe8754e4bc7d23f	-0.7643195610131172
65	0xbfdd517b2a910ea8	-0.45809821278474283
66	0xbfee96e04d7537e9	-0.9559175026749901
67	0xbfe0cf1892b194e5	-0.525280272017565
68	0xbfe3f322bcb95712	-0.6234296499266938
69	0xbfefd0f537e5e35e	-0.9942575542218994
70	0x3fdb651a7759d8f0	0.428045860818556
71	0xbfe3199a34cf89a2	-0.596875289102446
72	0xbfe64fbeccb83c94	-0.697234535067667
73	0x3fd5a5f9e3791a09	0.33825537885823614
74	0x3fd7a57cdb90a3af	0.36947556917089747
75	0x3fc11082c2fe7db6	0.13331636925884788
76	0xbfd8479c4c869cab	-0.37937076066232106
77	0xbfc26d44ed7de9ea	-0.14395963283807528
78	0xbfdc516b9ba76155	-0.44246950340813856
79	0xbfdd543eecc7d173	-0.45826695559596614
80	0xbfd38392c35b8fcb	-0.30490559652230037
81	0xbfe3a94ca88b301d	-0.6144164363736341
82	0x3fcbf2aaa9eebc8e	0.21834309861649043
83	0xbfe412cf516d0495	-0.6272961225842147
84	0xbfc321b1c577fe51	-0.14946577207591585
85	0x3fb1c1e6b9bbed7b	0.06936494860194913
86	0x3fb112e4e155876a	0.06669455052681675
87	0xbf8c6eed15086066	-0.01388344974934359
88	0x3fb33db092a5fcd0	0.07516006069453174
89	0xbfc0d3664d3c5f04	-0.1314514042976428
90	0x3fce4bc0c52dc52d	0.2366867983614979
91	0x3fbd59f4f88ad9db	0.11465388362817157
92	0x3fd1a6603c240c79	0.2757797801315927
93	0x3fb6738e21bf33fa	0.08770073245905499
94	0x3fb1642bb207e2c3	0.067934733357002
95	0x3fd0cdd2865ed2f4	0.26256240007505416
96	0xbfae3b390cada365	-0.05904558448566525
97	0x3fbe8c764192e479	0.11933077908442326
98	0x3fbb6de4277f7e3f	0.10714555706317073
99	0x3fd13aeb0ad2d6a6	0.2692210775088405
100	0xbfb58654e9bc1cdf	-0.08408098894516368
101	0x3fa226e69ebda06a	0.03545304000618972
102	0x3fb94de7dc1ebe43	0.098844996681458
103	0xbfb9e2d783ba420c	-0.10111758199696669
104	0x3fae5abd176b9d4a	0.059286030873233544
105	0xbfb3ce3f2299ee3c	-0.0773658236957368
106	0x3fcb4beec8e3aaab	0.2132547837166688
107	0xbfda952320b06b5c	-0.4153526133756509
108	0xbfc7393051a3c31a	-0.18143276201546926
109	0xbfc68d6fd8faa45e	-0.17619131178551845
110	0x3fc0931098d7c549	0.129488062506008
111	0xbfd2fc365e88aa5b	-0.2966438220197795
112	0x3fdd9a13d9877641	0.46252914660530925
113	0xbfc08764fc849c1a	-0.12913191156369025
114	0x3fd2ccd9ec18a669	0.29375312858846897
115	0x3f896ad09e04a903	0.012410764524777301
116	0xbf964f10fa1f0505	-0.021785989061531747
117	0x3fbea2a33f7f12b2	0.11966915416912619
118	0xbfbe0ce270d7af29	-0.11738410239166498
119	0x3fd78806413aa683	0.367677272510811
120	0x3fd3343fb7ec64fa	0.3000640197875125
121	0x3fb6de3820b5b13b	0.08932829664781121
122	0xbf93dd679782246f	-0.019399279234253827
123	0xbfbd62ceb337d0e5	-0.1147889316123983
124	0xbfc89eb2b9522e3f	-0.19234308289411392
125	0x3fb88c79f0ffaba3	0.09589349874265322
126	0xbfbbfedc3cb06abf	-0.10935760957401451
127	0xbfd57bd5f12d806d	-0.3356833319903732
128	0xbfd40b2c7efceebf	-0.3131819954030383
129	0x3f87a6650ce9cf16	0.011547841507514128
130	0x3fa0c0e241f37f6b	0.032721586752585484
131	0x3f8f4154efaa14ae	0.01526132923505438
132	0x3fd8d8642e6ad39c	0.3882074788373815
133	0x3fb81dce690bbcf6	0.09420480789752958
134	0xbfcc9d9650c80b78	-0.22355917877583997
135	0xbfd02d92c6a1bfc4	-0.25278157613410834
136	0x3fe0b1ee3e6d451e	0.5217200488351954
137	0x3fbdb34efe27f9f1	0.11601728157982173
138	0x3fc296d78919b0f6	0.1452283305583319
139	0x3fd324f1ceb7ab90	0.299129917023202
140	0x3fd29aaa788a0f7a	0.29069005748191723
141	0xbfc1a4c598a81415	-0.13784093812879009
142	0x3fc360c64839ad26	0.15139082457185643
143	0x3fd72237bfcff9bc	0.3614634869735729
144	0xbfa147094eb1b37e	-0.033745089393824465
145	0x3fd42875c45418dc	0.314969484068923
146	0xbfcafeb312a3dc96	-0.2108978119865454
147	0x3fb65a4ab939aa58	0.08731524488545384
148	0xbf76cbc59804a09a	-0.005565425730573415
149	0xbfc16d6ece667234	-0.13615212515004915
150	0xbfce9a9a6a527c81	-0.23909311477197906
151	0xbfa554087efc6620	-0.041656747342312395
152	0xbfc9abf36d49cf50	-0.20056002460807543
153	0xbf9c1e7adde8284b	-0.02746002177631394
154	0x3fb5f1c598190812	0.08572039569210713
155	0x3fcd1865f6482d23	0.22730707669720926
156	0x3fbd2c94de20269d	0.11396150992382066
157	0xbf8b4e4b42621aef	-0.013332927668910225
158	0xbfc774a97ec1cfcf	-0.1832477444582978
159	0x3fc0be2551913e88	0.13080278857022543
160	0x3fda3d6eb5fc8901	0.4099995400630548
161	0x3fc24e23334cd6ee	0.1430095673073803
162	0x3fd39fdef8614a46	0.3066327500902485
163	0xbfb1bd6865159b89	-0.06929638355141611
164	0x3fd255cedf2ab5c1	0.28648731034885705
165	0x3fb41d61fedc773a	0.07857334587285161
166	0xbfd8a3b598bcfdc4	-0.38499202648014497
167	0x3fd17ee8ecaf3887	0.27337096322742876
168	0x3fd130808df5ffeb	0.26858533728954964
169	0x3fbf81b40c9f7278	0.12307286556410613
170	0xbfc28b10b93305c2	-0.14486893694815534
171	0x3fc52702dda9b3c3	0.1652530271852851
172	0x3fd0493ca2936a16	0.25447002293154364
173	0x3fa1fc9933b6436c	0.035130298197265514
174	0xbfac175011a4aa35	-0.05486536231395115
175	0x3fb0c90d7b68eed8	0.06556782019554974
176	0xbfd0c1b4e7a8375f	-0.2618229162479703
177	0xbfca5c39da754d98	-0.20593951384453812
178	0xbfc5e33790f2757a	-0.17099661424155582
179	0xbfb25b52d32fec20	-0.07170598655641003
180	0x3fd5f99e29eb2f22	0.3433604630815684
181	0xbfe9480a6b9cd2a0	-0.7900440313156487
182	0xbfd72c12bad9c2ff	-0.36206501242763517
183	0xbfe21bc829e4a9f8	-0.5658913439013409
184	0x3fe781842b4b7e72	0.7345600934604148
185	0x3fedc8f99f9c309b	0.9307830922494021
186	0x3fe5077d3e025ea1	0.6571642123335161
187	0x3fd569fefe2fd876	0.33459448645533685
188	0x3fe939e24319e046	0.7883158979957521
189	0x3fe2d923575f328b	0.5890061098558176
190	0xbfe4736bb91ddea1	-0.6390894523201106
191	0x3fdeb8e71c11caa5	0.48003556958352994
192	0xbf7e96b78e8bce56	-0.0074679536999045695
193	0xbfc8c76aba50b989	-0.19358572099140428
194	0x3fd2e8f7b80fdcd3	0.2954692170600996
195	0x3fb7b9941e13a27b	0.09267545446676621
196	0xbfcc991c69650fc8	-0.22342257639149765
197	0xbfbb86256f84f2f9	-0.10751565907134965
198	0x3fcf6c4445cb5ba3	0.24549153716972424
199	0xbfadbd7da9a33c31	-0.05808632560512484
200	0xbfcabbdd82088a0a	-0.20885819291386581
201	0x3f8df8a7f8523ec7	0.014634430184997339
202	0x3fc4bb37dbba3182	0.16196344593880602
203	0xbfc0335afe07c480	-0.1265672436125307
204	0x3fd2a2ef62ac5926	0.2911947692495168
205	0xbfce6a64b69b2562	-0.23762186924276835
206	0xbfb3c330bb6a0863	-0.07719711852590332
207	0xbfd134323872d9cb	-0.26881080162584386
208	0x3fca13fbd710d8ae	0.20373485566387245
209	0x3fd563ab982c56d8	0.3342083917681129
210	0x3fc6caa63cab5351	0.17805936777463185
211	0x3fc420f1bebd85c0	0.15725538075916567
212	0x3fc8602381232e4c	0.19043391995943393
213	0x3fd440fb318158d6	0.31646613916872235
214	0xbfc7d63ab4bcf126	-0.18622526002025913
215	0x3fc20b08f9d9360c	0.14096176337845667
216	0xbfb2eb6a3dec72ce	-0.07390464793975157
217	0x3fbc7514c2b1a79d	0.11116151574392892
218	0x3fd1c4762123019d	0.27761605487833113
219	0x3fbac5d9cb853161	0.10458146303898765
220	0xbfba9ff395ebbca2	-0.10400316629578524
221	0xbfe054a82bbf6e8c	-0.5103340963791694
222	0x3fa9630e856c1ae4	0.04958386782350546
223	0xbfcf569ad32df47e	-0.2448304682874642
224	0xbfe1186edb3ca7e8	-0.5342325479480197
225	0x3fb8ddb0bfed2cfb	0.09713272748665595
226	0x3fd9c3702f385f89	0.40255360232685483
227	0xbfc3f474163e6e89	-0.15589762769819895
228	0x3fabc0ea2404f0fd	0.05420619668663738
229	0xbfcc2859ca2803fd	-0.21998140688813797
230	0xbfe469c41199cc5a	-0.6379108756795049
231	0xbfd2dcbbef7f6b21	-0.294722541698933
232	0x3fd3ee59bcace8e2	0.3114227621587259
233	0x3fb88b4a8bfaf956	0.09587541501511984
234	0x3fc7195309ac2d1e	0.18046033832829605
235	0x3fd7d963cac8ff88	0.3726434212039682
236	0xbfb7034c5f99bcb8	-0.08989407857892473
237	0x3fb4cce7dfa914f6	0.08125161371670572
238	0xbfd6ef280d7af0a7	-0.3583469516413608
239	0x3fb30161c3301ed6	0.07423983588534652
240	0x3fd68bd45e0b6fb3	0.35228451904344665
241	0xbfb3b9e5a5575fc5	-0.07705531393673855
242	0xbfd6d12652265286	-0.3565154840701229
243	0xbfd1b642e16bbf5d	-0.27674934400328316
244	0x3f9e9b39a3f2da39	0.029889011985426903
245	0xbf9d1f7357817c6b	-0.028440286842279876
246	0x3fc771643a10ed31	0.18314793429622392
247	0x3fccb7bfc2adcf1a	0.22435757642562565
248	0x3fd5b262d9ed88ab	0.3390128257943938
249	0xbfa0c8c0b287689d	-0.032781621735652446
250	0xbfc5f15b855aa605	-0.17142814647131402
251	0x3fc6db29c78eae77	0.1785633301163789
252	0x3fbe5cad676e3d90	0.11860164427911557
253	0xbfca3446cc5266a9	-0.20472035385755774
254	0xbfaf9370648663a7	-0.06167174555884652
255	0xbfe0b304d1efca24	-0.521852884323668

lstm1.bias_ih_l1 f8 [48]
0	0x3fe32e0dcf3f0c51	0.5993718192843379
1	0x3fe3d39c6aef067d	0.6195814217137038
2	0x3fd18a3d17b4b89b	0.274062417173704
3	0x3fe2f8bfc8175c36	0.5928648860962145
4	0x3ff1b0550584efa1	1.1055498328778202
5	0x3fe7f9d81af5dcd9	0.7492485548563322
6	0x3ff9e65a5679a42a	1.6187384965835556
7	0x3ff0aab887229630	1.0416798857417113
8	0x3fc07e0172a3dddb	0.12884538743649795
9	0x3fc80beda3fb5ece	0.18786402232102833
10	0x3fe16c0eeee2cf64	0.5444407144300212
11	0x3fde2c86e8531a07	0.47146771133375903
12	0x3fa8c3a4a6f0ea7b	0.04836763894896464
13	0xbfbd92c0a0c63903	-0.11552051472810736
14	0xbfca3a77cdfe4e63	-0.20490930135985072
15	0xbfe3de52d2893519	-0.6208891021757693
16	0xbfd2f4059dda5c3c	-0.29614391722992983
17	0xbfd174f5f74ee807	-0.27276372100061547
18	0x3fd2202e1c3bc49e	0.2832141185491056
19	0xbfd9c989d3aed4ab	-0.40292592689668066
20	0xbfc8d8867c5d4ac0	-0.19410782883149658
21	0xbfe05a60cf4fe975	-0.5110324906411693
22	0xbfb24bffe4d1c51d	-0.07147216164027666
23	0xbfc3b2461bb95db4	-0.15387798646655215
24	0xbfe9cdd73fa05c06	-0.8063770525649268
25	0x3fd1418bf7f29166	0.26962565625787815
26	0x3fe6be2f7f098fd4	0.710716007346941
27	0x3fa7669717d2dd47	0.045704576166310455
28	0xbff4a195f77affd6	-1.2894496600347245
29	0xbfb4fbf9c04eaaff	-0.08196984238626824
30	0xbfe4890c7bba0335	-0.6417295853171711
31	0xbfc33b9c5b6ab7a7	-0.15025667632783987
32	0xbfc01bd7035ba327	-0.12584960617029958
33	0xbfd624fa14f0e15b	-0.3460068897725443
34	0x3fcf1fd626e56a17	0.24315907382227017
35	0xbff5217ab164f109	-1.3206736497368772
36	0x3fd718fa99cfd98e	0.36089959164328256
37	0x3f72786bb4f93f7f	0.004509373407543537
38	0x3fd3df14cfdaf96c	0.31049080179572885
39	0xbfe463e74bb28e80	-0.6371952513186017
40	0x3ffa6ee6bb2077cd	1.6520755109445304
41	0x3fdbf5d2547d7ae1	0.43687875987045116
42	0x3ff34e1920ea9130	1.2065669332306008
43	0x3ff24b4d05d2312c	1.143384001482512
44	0x3fe9d9942dbc1e97	0.8078099148996952
45	0x3fa7326aa9b330b4	0.045306523528411274
46	0x3ffd99ba8fca6895	1.850031434709796
47	0x3fda712a774c46dd	0.41315709734145206
